p1_navigation/model.pth (torch_old, 28417 bytes, 6 tensors)

fc1.weight f4 [64, 37]
-0.04753014 -0.041134413 -0.05508075 0.019977795 0.1434386 -0.09391785 0.06718614 0.18579422
-0.0774664 -0.26740232 -0.058982037 0.054834057 0.018923245 0.025425615 0.16439405 -0.03636724
-0.011485659 0.00024125102 0.061689347 0.27144924 -0.13936615 -0.1525508 -0.08839163 -0.39284018
-0.3000976 -0.18373224 -0.13418713 -0.16386072 -0.2197747 0.034875225 -0.07400617 0.20960572
0.1490374 0.050227996 0.18036574 -0.09689028 0.07383335 -0.08947669 0.14515905 0.13807997
0.25825217 0.3729961 0.19743447 -0.010665704 -0.0030114774 -0.119615026 -0.28413457 0.1609541
-0.080758296 -0.09812351 -0.05511332 0.033438664 0.076564014 -0.078812614 0.034350682 -0.045090523
-0.09779324 0.1586156 0.12554125 0.11421185 -0.17161815 -0.21605942 -0.0083680395 0.08042288
0.10861299 0.039897364 -0.016034162 0.00863241 0.10739018 0.016777888 0.11303034 0.018016955
0.05935114 0.0051032393 -0.0034431147 -0.346776 -0.10784326 -0.18930787 -0.02848144 -0.3721243
-0.29175112 0.08780702 -0.42661846 -1.5036687 0.20664838 -0.27933332 0.07847161 -0.48552552
-0.40026626 -0.32148695 -0.33822533 0.14993995 0.013147851 0.14406852 -0.12821673 -0.35284165
0.0077443686 -0.3921584 -0.8474996 -0.2065027 -0.012665947 0.11545538 -0.6933358 -0.49169287
-0.21694149 -0.0644119 0.11367217 -0.13869065 -1.0146294 -0.18957041 0.07184149 0.3800585
-0.24753864 -0.21680486 -0.32073045 -0.84341466 0.023150085 -0.105670236 0.03299092 0.017429953
0.08345783 -0.032935858 -0.002266326 0.042095702 0.028626578 0.0954829 -0.053351343 -0.114120595
-0.15198754 0.092354536 0.15225376 0.11682273 -0.051324707 -0.020750264 -0.21555649 -0.14406231
-0.04384272 0.061557513 0.044965863 0.024911916 0.04485078 0.08433746 0.092147075 -0.08378501
0.15867965 0.022334648 -0.002705682 -0.0018981075 0.39737973 -0.515233 -0.5014716 -0.394279
-2.2480125 -0.048591096 0.006155406 0.0006271512 0.078329496 0.06979613 -0.016652422 0.08101862
-0.015414012 -0.019917639 -0.16135205 -0.06505336 0.074388824 -0.020345995 -0.017825164 0.00048361608
-0.05631904 0.041326318 0.060716227 0.18534476 0.14253552 0.079631574 0.07669493 0.046983194
0.03829828 0.015137859 0.003074122 0.028707787 0.1165874 0.11547233 0.08569925 0.004914079
0.0029095672 0.20314124 0.069150105 0.07539793 0.07935259 0.009819411 0.23195639 0.113603964
-0.16617133 -0.20889173 -0.34657377 -0.028108846 -0.06330085 0.004769742 0.16438112 0.15547568
-0.08629468 0.14059363 0.026467051 0.19218925 0.30372438 -0.017964188 0.054328676 -0.04947432
0.12718855 0.20420298 0.12979795 -0.01594892 -0.12647241 0.0329727 -0.025850233 0.112503916
0.13590115 0.0034306578 -0.003894673 -0.031904332 0.059890572 0.0018534577 -0.16551249 0.0011704108
-0.119083814 0.12124571 0.0373843 0.10727112 0.04790372 0.16906288 0.020377774 -0.33143988
-0.0025864143 0.08347286 -0.051325433 0.2996286 0.1458475 -0.058375273 -0.009951511 0.17884453
-0.1602328 -0.03133768 -0.005426335 -0.023721257 -0.01830471 0.16395108 0.15942866 -0.3276771
-0.00795693 0.13302822 -0.19626449 -0.056366075 -0.035513785 0.18770751 -0.033459883 -0.13807917
00000000: f7ae 42bd 8f7c 28bd 5a9c 61bd 79a8 a33c
00000010: 91e1 123e 0058 c0bd e398 893d d740 3e3e
00000020: b4a6 9ebd f5e8 88be 2697 71bd ad99 603d
00000030: ec04 9b3c 6149 d03c ea56 283e d1f5 14bd
00000040: 582e 3cbc 54f8 7c39 f8ad 7c3d 65fb 8a3e
00000050: 00b6 0ebe 4736 1cbe ac06 b5bd 5922 c9be
00000060: 65a6 99be 4e24 3cbe 5a68 09be 1bcb 27be
00000070: 9e0c 61be 53d9 0e3d 8c90 97bd e2a2 563e
00000080: 439d 183e dfbb 4d3d ccb1 383e 696e c6bd
00000090: f035 973d 8e3f b7bd 93a4 143e d664 0d3e
000000a0: a139 843e 58f9 be3e 432c 4a3e 34bf 2ebc
000000b0: 355c 45bb b9f8 f4bd 167a 91be 27d1 243e
000000c0: 9b64 a5bd fbf4 c8bd 81be 61bd fbf6 083d
000000d0: 98cd 9c3d 8268 a1bd 4db3 0c3d d7b0 38bd
000000e0: d247 c8bd 216c 223e e38d 003e e7e7 e93d
000000f0: abbc 2fbe ae3e 5dbe 1a1a 09bc c0b4 a43d
00000100: 7d70 de3d 6b6b 233d 135a 83bc f46e 0d3c
00000110: 62ef db3d c871 893c 737c e73d 4b98 933c
00000120: 2e1a 733d 1339 a73b e1a5 61bb a08c b1be
00000130: eddc dcbd ecd9 41be e951 e9bc 1487 bebe
00000140: 6760 95be 2bd4 b33d bc6d dabe 3778 c0bf
00000150: a29b 533e c704 8fbe b9b5 a03d cd96 f8be
00000160: b3ef ccbe f099 a4be df2b adbe dc89 193e
00000170: 166a 573c b386 133e 3f4b 03be a9a7 b4be
00000180: 79c4 fd3b fcc8 c8be bcf5 58bf 7275 53be
00000190: d584 4fbc df73 ec3d 747e 31bf 2bbf fbbe
000001a0: e925 5ebe 63ea 83bd f4cc e83d ec04 0ebe
000001b0: 60df 81bf bf1e 42be a221 933d 0797 c23e
000001c0: c57a 7dbe 1802 5ebe c836 a4be 06ea 57bf
000001d0: 3fa5 bd3c a369 d8bd 7d21 073d 43c9 8e3c
000001e0: f0eb aa3d c0e7 06bd a486 14bb 8b6c 2c3d
000001f0: 4982 ea3c 8a8c c33d f086 5abd 0fb8 e9bd
00000200: 9fa2 1bbe 6024 bd3d 69e8 1b3e c140 ef3d
00000210: db39 52bd 75fc a9bc d7ba 5cbe 1285 13be
00000220: 6d94 33bd bb23 7c3d 202e 383d 1314 cc3c
00000230: 74b5 373d 1eb9 ac3d 9bb7 bc3d 7a97 abbd
00000240: eb7c 223e 27f7 b63c d051 31bb ebc9 f8ba
00000250: 5b75 cb3e 4fe6 03bf 7160 00bf f0de c9be
00000260: 70df 0fc0 7507 47bd 4ab3 c93b 6867 243a
00000270: 376b a03d 46f1 8e3d a96a 88bc 17ed a53d
00000280: 0d8b 7cbc 512a a3bc 7939 25be b23a 85bd
00000290: 2b59 983d a5ac a6bc 1406 92bc da8d fd39
000002a0: cbae 66bd c945 293d 94b1 783d 04cb 3d3e
000002b0: d5f4 113e e115 a33d 3b12 9d3d 7371 403d
000002c0: a8de 1c3d c804 783c 3577 493b 982c eb3c
000002d0: 60c5 ee3d c27c ec3d 1783 af3d 4806 a13b
000002e0: 70ae 3e3b 4204 503e 929e 8d3d 3b6a 9a3d
000002f0: 9c83 a23d 98e1 203c fa85 6d3e 32a9 e83d
00000300: d128 2abe b7e7 55be 1e72 b1be 8644 e6bc
00000310: e0a3 81bd 7f4b 9c3b 8653 283e 0435 1f3e
00000320: 44bb b0bd c7f7 0f3e 6ed1 d83c 42cd 443e
00000330: c381 9b3e a229 93bc bf87 5e3d 96a5 4abd
00000340: b73d 023e 961a 513e c1e9 043e 4fa7 82bc
00000350: fc81 01be 620e 073d dec3 d3bc 7468 e63d
00000360: ac29 0b3e e3d4 603b c53d 7fbb 1eae 02bd
00000370: d14f 753d b8ef f23a 1b7c 29be 7868 993a
00000380: 37e2 f3bd ac4f f83d 4820 193d f6b0 db3d
00000390: b136 443d d21e 2d3e 4aef a63c 7db2 a9be
000003a0: d580 29bb d2f3 aa3d 9e3a 52bd eb68 993e
000003b0: 0c59 153e e91a 6fbd aa0b 23bc 0523 373e
000003c0: 1114 24be f05b 00bd 66cf b1bb 1553 c2bc
000003d0: c2f3 95bc cbe2 273e 4441 233e 4bc5 a7be
000003e0: c95d 02bc 8d38 083e 8ff9 48be 1de0 66bd
000003f0: e776 11bd 6636 403e 3b0d 09bd a064 0dbe

fc1.bias f4 [64]
-0.059922237 0.06669774 -0.12814923 -0.061565313 0.044311654 0.15912968 -0.044453837 0.10404639
0.092716746 0.09340676 -0.14232975 -0.10816238 0.12236403 -0.13487929 -0.14060883 0.13078493
-0.17759758 0.0021425476 0.014367372 0.099860154 -0.017220046 -0.017627804 0.036745228 -0.12069962
-0.13313858 -0.16615148 -0.058125537 -0.023767296 -0.067776255 -0.0005440459 -0.17228663 -0.09955593
-0.09633116 -0.09793645 0.2578628 -0.04404703 0.056296274 -0.06789693 0.003822526 -0.07275884
-0.23876482 0.010776759 -0.08977176 0.13434134 0.09350129 -0.11173928 -0.19895646 0.04761301
0.0626003 -0.073900595 0.1498316 -0.04936181 -0.17562059 0.08564746 0.10677242 0.040553413
-0.041191656 -0.17699936 -0.0598831 -0.023093367 0.073145725 0.10327967 -0.055885196 0.013410614
00000000: 0571 75bd d398 883d 8d39 03be e92b 7cbd
00000010: 2380 353d e4f2 223e 3a15 36bd 4616 d53d
00000020: 47e2 bd3d 0b4c bf3d e4be 11be 3d84 ddbd
00000030: fe99 fa3d cc1d 0abe c3fb 0fbe 7cec 053e
00000040: 24dc 35be fc69 0c3b 2065 6b3c 7b83 cc3d
00000050: 0e11 8dbc 2f68 90bc 2a82 163d 5d31 f7bd
00000060: 7b55 08be 9d23 2abe 0b15 6ebd a2b3 c2bc
00000070: 47ce 8abd 4d9e 0eba e86b 30be fbe3 cbbd
00000080: 4549 c5bd e892 c8bd 9806 843e a96a 34bd
00000090: ec96 663d 8c0d 8bbd 5883 7a3b 9602 95bd
000000a0: c47e 74be 0191 303c 42da b7bd c790 093e
000000b0: 9b7d bf3d 90d7 e4bd 3ebb 4bbe dc05 433d
000000c0: 9634 803d 3259 97bd 746d 193e 9c2f 4abd
000000d0: e2d5 33be ef67 af3d 80ab da3d 561b 263d
000000e0: 95b8 28bd 523f 35be fb47 75bd 4d2e bdbc
000000f0: 6dcd 953d 4b84 d33d e0e7 64bd 31b8 5b3c

fc2.weight f4 [64, 64]
0.06639229 0.190308 0.07406075 0.17903094 0.38415024 0.12114294 0.028762236 -0.020756196
0.06365133 0.06480589 0.11032037 -0.015141994 -0.03363099 0.09404631 -0.06515348 0.019079188
0.09296575 -0.06753889 0.020886533 -0.099079296 0.03290887 -0.11524289 -0.027496515 0.069185786
0.1087072 -0.041576292 0.075183295 -0.07760619 0.20789227 0.07861394 0.038967237 0.03512126
-0.009610075 0.044197187 -0.0749291 -0.011758507 0.10888381 -0.017193142 0.081875116 -0.07628889
0.057663534 0.013693831 0.10590051 0.08017968 -0.072881065 0.10940927 0.08612909 0.13732678
0.026069598 0.062483188 0.09938501 -0.047925334 0.06572496 0.08157139 0.34822446 0.0005798646
0.10171615 -0.022765093 -0.0922656 0.06878965 -0.041371312 -0.08002536 0.08048415 -0.17830734
0.29441726 0.0033053954 -0.10345496 -0.11437242 -0.10148373 0.090968706 -0.4762545 0.051299714
-0.28425482 0.22236088 0.2915466 -0.3633134 0.061279833 -0.17715526 -0.39737213 -0.20752667
-0.041161384 0.10218479 -0.01835656 0.22317971 -0.29244593 -0.2214405 -0.10667443 -0.033951256
-0.004113366 -0.121620975 -0.020024786 0.048313815 0.14828873 -0.15708338 -0.103431836 0.14229469
0.17368534 0.1634249 0.068961054 -0.17905623 -0.1985627 -0.1907455 -0.13378671 -0.08145011
0.037924092 -0.21688673 -0.066412814 0.12066711 -0.29127184 -0.21166228 -0.17682475 0.018916773
-0.031936865 -0.18615684 -0.026325444 -0.19061737 0.18387786 0.060758885 -0.04812914 -0.20169762
-0.37316424 0.14131528 -0.1488247 0.09043461 -0.020530794 0.17075543 0.12958968 -0.21060704
-0.044973228 0.052528616 0.111918524 -0.04892147 -0.08520182 -0.01778411 0.025389489 0.02096602
0.06403418 0.12248653 -0.13558166 -0.10704677 0.40184748 0.07890679 0.06872664 -0.1168868
-0.09691752 0.07415334 -0.13732637 -0.33209768 0.13198248 -0.049683742 -0.032458894 -0.08732263
-0.04993503 -0.012720116 0.08172162 0.121813476 -0.25813207 -0.13704091 0.67840606 0.0635519
0.12025015 0.01777875 -0.023010412 0.02325726 -0.3637939 -0.17477863 0.047962807 0.09736535
-0.14050399 0.12224562 0.010774681 -0.053840008 -0.2027673 -0.044707693 0.113074765 0.09337407
-0.08429757 0.03392541 -0.17194244 -0.03670448 0.20199671 0.1082739 0.0017758923 -0.24082153
-0.01111578 0.21802774 -0.16929285 0.019890377 -0.27724522 -0.029798487 -0.232404 0.11018703
0.015450297 -0.18309338 0.24662657 0.108521886 -0.19522457 -0.11208252 -0.24714538 0.21467003
-0.07047448 -0.10710951 0.1122873 -0.2578039 0.08844878 -0.02900822 0.11996775 -0.080733106
-0.16024551 -0.0839185 -0.2859308 0.09763083 0.18244933 -0.26220855 0.09482107 0.11194767
-0.11333222 -0.38065043 -0.11543974 0.07649237 -0.10313515 0.16939825 -0.19765091 0.18105942
0.27426863 0.21782376 0.049772706 -0.11782291 0.085863166 0.2008118 -0.05055002 -0.09978766
0.23389603 -0.13429493 -0.1554304 -0.09989705 0.0626445 -0.12763254 0.01943027 0.14742374
0.11094479 0.013733248 -0.07055276 0.051614165 -0.26414314 -0.30684787 0.09170773 0.20880148
-0.09561519 -0.28231338 -0.14822848 -0.04134659 -0.5842767 0.16643393 0.08132108 -0.35406864
00000000: aef8 873d 1ae0 423e 2aad 973d e353 373e
00000010: 57af c43e ca19 f83d c89e eb3c e608 aabc
00000020: a15b 823d f3b8 843d a5ef e13d 2016 78bc
00000030: a6c0 09bd 5a9b c03d 306f 85bd f54b 9c3c
00000040: d464 be3d d451 8abd 3c1a ab3c 16ea cabd
00000050: 74cb 063d 7704 ecbd 5f40 e1bc 47b1 8d3d
00000060: e1a1 de3d e74b 2abd b3f9 993d ffef 9ebd
00000070: b6e1 543e 5800 a13d 1c9c 1f3d 4fdb 0f3d
00000080: 9373 1dbc 1c08 353d 6e74 99bd c1a6 40bc
00000090: 7afe de3d a2d8 8cbc 24ae a73d 593d 9cbd
000000a0: 9930 6c3d 175c 603c 5ee2 d83d 3e35 a43d
000000b0: ab42 95bd f811 e03d 7364 b03d 649f 0c3e
000000c0: e98f d53c 5fee 7f3d 5e8a cb3d 5b4d 44bd
000000d0: cf9a 863d e70e a73d 7a4a b23e 0e02 183a
000000e0: 8f50 d03d dc7d babc bff5 bcbd 97e1 8c3d
000000f0: f774 29bd 56e4 a3bd e0d4 a43d 3396 36be
00000100: dcbd 963e 559f 583b 32e0 d3bd 163c eabd
00000110: b4d6 cfbd cd4d ba3d a1d7 f3be a61f 523d
00000120: d989 91be 92b2 633e 9945 953e 3704 babe
00000130: 9000 7b3d 3068 35be 5c74 cbbe df81 54be
00000140: d798 28bd 4246 d13d 7f60 96bc 3989 643e
00000150: 79bb 95be 4cc1 62be 2078 dabd 7910 0bbd
00000160: 6ac9 86bb 6b14 f9bd 050b a4bc b5e4 453d
00000170: 00d9 173e 77da 20be 12d4 d3bd b3b5 113e
00000180: 92da 313e db58 273e 743b 8d3d 845a 37be
00000190: 0554 4bbe ca52 43be 62ff 08be 51cf a6bd
000001a0: 4b56 1b3d 8e17 5ebe 7103 88bd 5120 f73d
000001b0: 9521 95be ffbd 58be 8c11 35be 59f7 9a3c
000001c0: 3bd0 02bd e69f 3ebe 75a8 d7bc 3331 43be
000001d0: 7a4a 3c3e 4fde 783d 1023 45bd d289 4ebe
000001e0: 620f bfbe f4b4 103e 8165 18be c835 b93d
000001f0: 3230 a8bc 83da 2e3e 28b3 043e 5fa9 57be
00000200: d935 38bd 3f28 573d 8a35 e53d e161 48bd
00000210: 4b7e aebd fbaf 91bc 9efd cf3c eec0 ab3c
00000220: 5a24 833d 38da fa3d ebd5 0abe 563b dbbd
00000230: f4be cd3e e299 a13d 8dc0 8c3d 5962 efbd
00000240: b17c c6bd b5dd 973d 499f 0cbe b508 aabe
00000250: 6a26 073e 2e81 4bbd 9ef3 04bd 35d6 b2bd
00000260: ad88 4cbd 0968 50bc aa5d a73d 5879 f93d
00000270: e329 84be 7454 0cbe 05ac 2d3f 8027 823d
00000280: b645 f63d bea4 913c 5580 bcbc 0286 be3c
00000290: 3243 babe 2bf9 32be a674 443d 7c67 c73d
000002a0: 47e0 0fbe e95b fa3d 4a88 303c 5787 5cbd
000002b0: 3ba2 4fbe 6a1f 37bd be93 e73d e83a bf3d
000002c0: 34a4 acbd 5ff5 0a3d ae11 30be 7057 16bd
000002d0: 3ad8 4e3e b5be dd3d 0fc5 e83a eb99 76be
000002e0: f61e 36bc aa42 5f3e 1b5b 2dbe 25f1 a23c
000002f0: 16f3 8dbe f51b f4bc 50fb 6dbe bda9 e13d
00000300: 3e23 7d3c d57c 3bbe ad8b 7c3e b940 de3d
00000310: f3e8 47be 858b e5bd ae13 7dbe 76d2 5b3e
00000320: ed54 90bd 3b5c dbbd e2f6 e53d dffe 83be
00000330: a224 b53d a6a2 edbc a7b1 f53d 6657 a5bd
00000340: 6617 24be 76dd abbd 8665 92be acf2 c73d
00000350: ffd3 3a3e 3340 86be 8d31 c23d d244 e53d
00000360: b91a e8bd 9de4 c2be ac6b ecbd 08a8 9c3d
00000370: 8638 d3bd bc76 2d3e 0065 4abe a467 393e
00000380: f06c 8c3e 310d 5f3e 77de 4b3d 234d f1bd
00000390: 07d9 af3d 9ca1 4d3e 8a0d 4fbd 795d ccbd
000003a0: 7182 6f3e 9c84 09be 2629 1fbe d396 ccbd
000003b0: c24b 803d 1bb2 02be 3b2c 9f3c 40f6 163e
000003c0: 0637 e33d 6b01 613c f77d 90bd 6069 533d
000003d0: c53d 87be 2a1b 9dbe 43d1 bb3d 0ed0 553e
000003e0: e6d1 c3bd 618b 90be 35c9 17be 0b5b 29bd
000003f0: 2893 15bf a86d 2a3e ab8b a63d 7c48 b5be

fc2.bias f4 [64]
0.34146056 -0.14591601 0.0013794401 -0.035925154 -0.06963046 -0.097723745 0.14068557 0.11587524
-0.20156518 -0.108484425 0.3505407 -0.015356935 -0.007318304 0.114853784 -0.040907722 -0.07896791
-0.012170866 0.0064211884 0.45013332 0.046868324 0.082942486 0.13398068 0.05587301 0.028806465
0.06506142 -0.04865662 0.12162454 -0.17351422 0.20540315 0.012542452 0.22778693 -0.03797244
-0.0450619 -0.15852647 -0.01012537 0.023729183 -0.17618889 0.07406522 0.019494573 -0.052144118
-0.064948894 0.09853309 -0.11448767 0.14248446 -0.044562172 -0.0050423774 0.3714782 -0.1390024
-0.061107192 0.24426402 0.2324143 -0.027620489 0.26165283 -0.03819258 0.009204705 -0.056496505
-0.107122734 0.2385163 0.042253543 0.22561124 0.341918 -0.14070612 0.01795714 -0.04271128
00000000: ebd3 ae3e 026b 15be 54ce b43a 4126 13bd
00000010: 6a9a 8ebd 6323 c8bd e10f 103e ff4f ed3d
00000020: 1a67 4ebe 152d debd 127a b33e a79b 7bbc
00000030: 62ce efbb 7638 eb3d db8e 27bd edb9 a1bd
00000040: 5068 47bc d568 d23b e077 e63e 00f9 3f3d
00000050: c0dd a93d 3b32 093e 19db 643d 89fb eb3c
00000060: ec3e 853d 2a4c 47bd 4916 f93d b6ad 31be
00000070: 3455 523e db7e 4d3c fa40 693e fd88 1bbd
00000080: d492 38bd c354 22be e1e4 25bc b463 c23c
00000090: dc6a 34be 82af 973d 15b3 9f3c 1295 55bd
000000a0: ed03 85bd b7cb c93d 8378 eabd 72e7 113e
000000b0: d386 36bd 873a a5bb 6432 be3e a556 0ebe
000000c0: 894b 7abd 5920 7a3e 04fe 6d3e 5d44 e2bc
000000d0: 5cf7 853e d36f 1cbd 55cf 163c e168 67bd
000000e0: 2a63 dbbd 9e3d 743e 0d12 2d3d a206 673e
000000f0: e00f af3e 4415 10be da1a 933c 06f2 2ebd

fc3.weight f4 [4, 64]
0.08910403 -0.26099032 0.13570467 -0.23073058 0.03500564 -0.33525366 0.26436156 0.22821209
-0.1900723 -0.07529025 0.16872367 0.17992564 0.23184651 0.15027565 -0.0520522 0.021284053
-0.007325148 0.34144112 0.22553505 -0.022773318 0.2003498 0.17635009 0.066595465 -0.22784853
0.1598465 0.055574127 -0.091479786 0.3660403 0.23362312 0.23663935 0.12283413 0.34868193
-0.100529835 -0.13080904 -0.33569974 0.07163204 -0.13352613 0.2552005 -0.61354524 0.13746306
0.39708582 0.14919285 -0.038065642 0.24731897 0.19501658 -0.097034045 0.20046386 -0.16888995
-0.0062999004 0.035951715 0.1538257 0.08690752 0.0922928 0.24274 0.082782224 0.1989879
-0.5563212 0.110343926 0.20229496 0.14489044 0.19229741 0.09351631 -0.26623437 -0.03069868
0.13067159 -0.1994235 0.4498186 0.121898904 -0.37473634 -0.24134648 0.24557991 0.11763117
-0.17144185 -0.093295105 0.16827182 0.11770214 0.2059915 0.33840808 -0.059202053 -0.20775187
0.0071769063 0.30870363 0.16106966 0.023541464 0.15868199 0.11056505 0.179857 0.0023052185
0.1575642 0.18910438 0.018628415 -0.11781602 0.23311932 0.22994566 0.16758433 0.21572275
-0.0018190249 -0.24716158 -0.25204286 -0.0759833 -0.16495848 0.19888102 -0.044985928 0.1808174
0.37543744 0.21132044 0.45756128 0.1946278 0.37475482 -0.02267666 0.12919249 -0.1834671
0.09217424 0.13787468 0.120602705 0.0972939 0.12222223 0.16124855 0.16539517 0.05726489
-0.13041161 0.16504681 0.32157776 0.22172768 0.0665603 -0.11811333 -0.023603268 -0.14978358
0.067382365 0.017844733 0.49157664 -0.29796016 0.03916908 0.2198566 0.19227938 0.28378066
-0.45577332 0.011510819 0.18882322 0.2671324 0.09286058 0.36460084 0.10090808 -0.4652373
0.24930811 -0.012146802 0.16901541 -0.11136327 -0.05925365 0.1956768 0.013548406 -0.0042248517
0.17467253 0.27815023 0.028330611 0.17548905 0.32006675 0.3551371 0.020241383 -0.12861212
-0.48884284 0.084632225 0.53344876 0.35960457 -0.09991081 0.0949245 0.13112183 0.09681642
0.19976054 -0.245572 -0.15310813 0.18124604 0.3141806 -0.08453601 0.119783476 -0.122064956
-0.15892924 0.10445333 0.08191964 0.3143225 0.1394545 0.3975912 0.10248703 0.21505728
0.109858006 0.04159024 0.13717188 0.15343982 0.12530425 0.0015961698 -0.26540864 -0.043574825
0.16734797 0.010624604 -0.09663878 0.22350194 -0.08307172 -0.14479412 0.12957828 0.12181739
-0.24849497 -0.24006343 0.03844932 0.35978928 0.17180826 -0.052002955 0.045269843 0.101093926
-0.049961362 -0.08888047 0.14844199 -0.1472059 0.09915859 0.08203225 0.27759683 -0.081712976
-0.1481697 0.011275583 0.20136352 -0.52696806 0.17200245 0.1292304 0.05226743 0.42243025
-0.3988467 -0.15884593 0.29890388 0.35094872 -0.25677508 0.2922816 -0.35631552 0.18959498
0.53833425 0.3953184 -0.120707765 0.19060014 0.22798754 -0.08649034 0.10137154 0.09674694
-0.07082411 0.16425359 0.038978554 0.17829593 0.1296748 -0.030329755 0.26899475 -0.43961194
0.07224744 0.17688473 0.30792916 0.23877701 0.15751512 -0.122232266 -0.27585346 -0.17979449
00000000: 2c7c b63d 86a0 85be 2af6 0a3e a344 6cbe
00000010: 1362 0f3d 5ea6 abbe 665a 873e 6eb0 693e
00000020: 50a2 42be c631 9abd e6c5 2c3e 6d3e 383e
00000030: 2c69 6d3e dce1 193e b034 55bd e55b ae3c
00000040: cc07 f0bb 5fd1 ae3e a9f2 663e 1c8f babc
00000050: 7f28 4d3e 1e95 343e 3463 883d 2051 69be
00000060: cdae 233e b2a1 633d c159 bbbd a269 bb3e
00000070: e63a 6f3e 9651 723e 7690 fb3d 7086 b23e
00000080: 96e2 cdbd cef2 05be d6e0 abbe d2b3 923d
00000090: 13bb 08be a4a9 823e 4d11 1dbf 1ec3 0c3e
000000a0: d54e cb3e 03c6 183e b8ea 1bbd 2f41 7d3e
000000b0: 6db2 473e c9b9 c6bd 6646 4d3e 7df1 2cbe
000000c0: 656f cebb 1b42 133d 7c84 1d3e 92fc b13d
000000d0: 0204 bd3d d690 783e ba89 a93d 7cc3 4b3e
000000e0: 116b 0ebf fffb e13d 6926 4f3e 295e 143e
000000f0: 9de9 443e 7b85 bf3d df4f 88be cc7b fbbc
00000100: c6ce 053e ad35 4cbe a04e e63e 22a6 f93d
00000110: 71dd bfbe 8823 77be 4d79 7b3e 9ce8 f03d
00000120: 748e 2fbe 8111 bfbd 734f 2c3e d20d f13d
00000130: 70ef 523e d343 ad3e da7d 72bd e8bc 54be
00000140: 412c eb3b 670e 9e3e 72ef 243e 07da c03c
00000150: 887d 223e ee6f e23d 6f2c 383e 2613 173b
00000160: 8258 213e 94a4 413e 9e9a 983c 8749 f1bd
00000170: d5b6 6e3e e076 6b3e 3a9b 2b3e 6de6 5c3e
00000180: 596c eeba ed17 7dbe c30b 81be 229d 9bbd
00000190: e0ea 28be 77a7 4b3e 2a43 38bd 3228 393e
000001a0: 5639 c03e 6364 583e 7945 ea3e 834c 473e
000001b0: dddf bf3e 67c4 b9bc 094b 043e cdde 3bbe
000001c0: d9c5 bc3d 052f 0d3e 8dfe f63d 0642 c73d
000001d0: a64f fa3d 571e 253e 5a5d 293e 978e 6a3d
000001e0: 9f8a 05be 0802 293e d7a5 a43e 950c 633e
000001f0: c450 883d 67e5 f1bd a45b c1bc de60 19be
00000200: c4ff 893d 1e2f 923c efaf fb3e 3c8e 98be
00000210: c26f 203d 1722 613e e3e4 443e b34b 913e
00000220: 1f5b e9be e097 3c3c e05a 413e 94c5 883e
00000230: b02d be3d f6ac ba3e e5a8 ce3d 9533 eebe
00000240: a04a 7f3e 6103 47bc 6012 2d3e 6d12 e4bd
00000250: f5b3 72bd 805f 483e 22fa 5d3c a070 8abb
00000260: 5bdd 323e b569 8e3e 9915 e83c 67b3 333e
00000270: cadf a33e 88d4 b53e 42d1 a53c e5b2 03be
00000280: 9c49 fabe a953 ad3d 1990 083f 171e b83e
00000290: 0a9e ccbd c767 c23d cd44 063e b047 c63d
000002a0: 078e 4c3e 3a77 7bbe 61c8 1cbe 9098 393e
000002b0: 48dc a03e 3721 adbd 0a51 f53d 31fd f9bd
000002c0: 59be 22be a1eb d53d 7cc5 a73d e1ee a03e
000002d0: 29cd 0e3e 1391 cb3e b8e4 d13d fa37 5c3e
000002e0: 3cfd e03d 875a 2a3d c976 0c3e 541f 1d3e
000002f0: c24f 003e 9236 d13a a4e3 87be 847b 32bd
00000300: 445d 2b3e d212 2e3c 8dea c5bd b1dd 643e
00000310: 8221 aabd e944 14be 2bb0 043e 657b f93d
00000320: 7775 7ebe 30d3 75be 097d 1d3d 4d36 b83e
00000330: 81ee 2f3e 0d01 55bd df6c 393d 550a cf3d
00000340: 49a4 4cbd f706 b6bd 2d01 183e 25bd 16be
00000350: a913 cb3d 8600 a83d 2c21 8e3e 2259 a7bd
00000360: ccb9 17be 39bd 383c 3d32 4e3e 61e7 06bf
00000370: 6921 303e f954 043e 5f16 563d c748 d83e
00000380: a235 ccbe 82a8 22be ee09 993e 8daf b33e
00000390: 0678 83be efa5 953e fd6e b6be 3025 423e
000003a0: 46d0 093f 2c67 ca3e a235 f7bd af2c 433e
000003b0: 9175 693e d921 b1bd e29b cf3d 4223 c63d
000003c0: 3b0c 91bd 1832 283e faa7 1f3d 3593 363e
000003d0: 79c9 043e 1b76 f8bc aeb9 893e d114 e1be
000003e0: 77f6 933d 4521 353e e4a8 9d3e f681 743e
000003f0: a54b 213e e954 fabd aa3c 8dbe 0c1c 38be

fc3.bias f4 [4]
0.2132317 0.22293743 0.301323 0.30399546
00000000: 6959 5a3e b649 643e 0247 9a3e 4ba5 9b3e
