p2_continuous-control/checkpoint_actor.pth (torch_old, 553525 bytes, 14 tensors)

fc1.weight f4 [400, 33]
0.0941546 -0.13397047 0.20813894 0.3076476 0.08286705 0.2976783 0.13644092 -0.089002796
-0.16435204 0.17145012 0.01748016 0.05165169 0.07892687 0.15258013 -0.02238786 0.059880853
0.06357945 -0.06447923 0.41029036 0.4310462 0.06372767 0.099523015 0.14259727 -0.13197547
0.083322346 0.038947884 -0.11819197 0.04091203 0.019431649 0.017440956 0.037173804 0.010926098
-0.24814807 0.11217928 -0.15730223 0.044173278 -0.4683196 -0.030519154 -0.44966382 -0.033147916
0.11701578 -0.057213593 -0.17612086 -0.058505017 0.029578 0.08898192 0.013567922 -0.010429271
-0.06853305 -0.15342271 0.42674905 0.22448465 0.40228647 -0.07232798 0.077298194 -0.092190444
-0.09398818 0.020562299 -0.035715446 0.0013972142 0.027667336 -0.010320915 0.032353725 0.020955443
-0.017954279 0.3461349 -0.14371431 0.020112325 -0.01703931 0.22219996 -0.27216458 -0.1626334
0.066273846 -0.046409868 -0.024802208 0.0055340044 -0.0021478245 0.108209305 -0.028331842 0.014596485
0.004203659 0.012368162 -0.21213946 0.08631879 -0.20174505 0.12201037 -0.0009389095 -0.0500542
-0.049808033 0.12150999 -0.10130796 -0.14087841 -0.12477634 0.009864732 -0.12562357 0.016896699
-0.04757556 0.004643839 -0.5303643 -0.052543607 0.080910996 -0.08662613 0.22628741 -0.08995872
-0.13122128 -0.059457824 0.025786256 0.103464544 0.069365025 0.024276698 0.10162436 -0.16066353
0.006701662 -0.1764328 -0.07241072 -0.20883383 0.08139683 0.06961379 0.051546093 -0.0029555645
0.07109853 -0.078814186 0.093192354 -0.14363633 -0.23479527 0.052049488 -0.02411581 -0.010435211
-0.032236643 -0.029297236 -0.027484966 0.6729529 0.21693577 -0.09103291 0.124594614 0.1227453
0.14156105 -0.018143928 0.16263913 0.027993748 0.030177211 -0.04476713 0.023284633 -0.09758669
-0.03340104 -0.016703662 0.17770621 0.061437912 -0.08032618 -0.107763514 -0.1600133 0.29193655
0.13741805 0.018324258 -0.024062036 0.060640905 0.13423842 0.058285885 0.07393108 -0.010614354
0.04098353 0.04380979 0.023913624 -0.032179452 -0.39038503 -0.13480388 -0.05383817 0.02639133
-0.009916798 0.07236482 -0.38916793 0.27526772 0.078103654 0.10411099 0.024343994 -0.01797859
-0.0398795 -0.084206924 0.033678673 -0.07540998 -0.21938436 0.0149744805 -0.035344258 0.28127545
0.19638202 -0.045284584 -0.14924191 -0.02017838 -0.011467495 -0.22069676 -0.03968911 -0.025592165
0.023810731 -0.1572762 -0.035253536 0.02500206 -0.0138246305 0.39479327 -0.09373625 -0.050224297
0.16471179 -0.3145823 0.024368523 -0.37644765 -0.15782614 -0.07992488 -0.1486922 0.050195504
-0.041219953 0.06035162 -0.065785885 0.17198086 0.05030531 -0.123467185 0.22629629 -0.22783
-0.14000463 -0.10100683 -0.0045325262 -0.009137235 0.018947113 0.12185346 0.0640275 -0.07319729
-0.12035671 -0.020794908 0.021373607 0.03580008 0.0067751673 -0.027903497 0.3711785 0.13493946
-0.15661947 -0.14976305 0.42328072 0.024867058 0.047222923 0.13655119 0.008925088 0.050061293
0.067926794 0.05704366 -0.049535815 -0.10733253 -0.07273717 0.029089807 0.063590564 0.22018501
0.28747177 0.48604763 0.23302814 -0.058925983 0.06502453 -0.094023965 0.013610546 0.043677095
00000000: 20d4 c03d 8e2f 09be 6022 553e fc83 9d3e
00000010: 33b6 a93d 4a69 983e 2bb7 0b3e 1947 b6bd
00000020: e74b 28be 9f90 2f3e 8d32 8f3c b990 533d
00000030: 69a4 a13d f73d 1c3e bf66 b7bc a045 753d
00000040: f135 823d b00d 84bd 9411 d23e 16b2 dc3e
00000050: a783 823d b9d2 cb3d 0505 123e 9424 07be
00000060: e8a4 aa3d d187 1f3d a20e f2bd 5f93 273d
00000070: 1f2f 9f3c 56e0 8e3c 8f43 183d 6003 333c
00000080: 871a 7ebe 40be e53d d613 21be 0aef 343d
00000090: 96c7 efbe 4e03 fabc 563a e6be 1cc6 07bd
000000a0: f8a5 ef3d cd58 6abd 0759 34be f5a2 6fbd
000000b0: 904d f23c 273c b63d fd4b 5e3c 88df 2abc
000000c0: 0e5b 8cbd d81a 1dbe da7e da3e 4edf 653e
000000d0: 7ef8 cd3e b120 94bd 844e 9e3d 58ce bcbd
000000e0: e07c c0bd 4472 a83c 5c4a 12bd bb22 b73a
000000f0: 9ca6 e23c 0e19 29bc 5785 043d c0aa ab3c
00000100: da14 93bc 9838 b13e d829 13be 9ac2 a43c
00000110: 0696 8bbc 6388 633e 2859 8bbe 5f89 26be
00000120: 95ba 873d 4618 3ebd 002e cbbc 9856 b53b
00000130: 84c2 0cbb d79c dd3d 2e18 e8bc 1826 6f3c
00000140: d9be 893b d5a3 4a3c 163b 59be e8c7 b03d
00000150: 4196 4ebe 93e0 f93d 2621 76ba a205 4dbd
00000160: 8203 4cbd 3bda f83d 8c7a cfbd 6e42 10be
00000170: bd8a ffbd af9f 213c 77a3 00be f26a 8a3c
00000180: 97de 42bd 582b 983b f4c5 07bf f737 57bd
00000190: aab4 a53d 0a69 b1bd e3b7 673e 473c b8bd
000001a0: df5e 06be 0c8a 73bd b33d d33c 38e5 d33d
000001b0: 400f 8e3d eddf c63c 6f20 d03d fb84 24be
000001c0: 9e99 db3b cdaa 34be 124c 94bd 89d8 55be
000001d0: 62b3 a63d ad91 8e3d ff21 533d 25b2 41bb
000001e0: 1b9c 913d 5569 a1bd a2db be3d 6715 13be
000001f0: 2c6e 70be d831 553d 858e c5bc 72f8 2abc
00000200: 920a 04bd c200 f0bc 2728 e1bc a446 2c3f
00000210: 6924 5e3e 766f babd 762b ff3d e361 fb3d
00000220: 61f5 103e 93a2 94bc df8a 263e 2553 e53c
00000230: 3336 f73c bd5d 37bd 6abf be3c 88db c7bd
00000240: 87cf 08bd 1ed6 88bc 9ef8 353e 52a6 7b3d
00000250: 0d82 a4bd 1eb3 dcbd 87da 23be b578 953e
00000260: 51b7 0c3e c11c 963c bf1d c5bc 9962 783d
00000270: cc75 093e 2ebd 6e3d 2e69 973d d4e7 2dbc
00000280: 59de 273d e571 333d 81e6 c33c 9ace 03bd
00000290: 8ce0 c7be 070a 0abe 6a85 5cbd a132 d83c
000002a0: 117a 22bc 0234 943d 0541 c7be e4ef 8c3e
000002b0: cff4 9f3d 2538 d53d 0e6d c73c d647 93bc
000002c0: b058 23bd ae74 acbd a6f2 093d 8c70 9abd
000002d0: 4ba6 60be 8657 753c 24c5 10bd 5603 903e
000002e0: 5e18 493e 547c 39bd dfd2 18be 214d a5bc
000002f0: 29e2 3bbc 55fe 61be 0c91 22bd a9a6 d1bc
00000300: b90e c33c 030d 21be 0366 10bd 1fd1 cc3c
00000310: b480 62bc 5822 ca3e cbf8 bfbd feb7 4dbd
00000320: 35aa 283e ee10 a1be 7fa0 c73c bfbd c0be
00000330: 2d9d 21be a8af a3bd c542 18be cd99 4d3d
00000340: 41d6 28bd 4333 773d c0ba 86bd c01b 303e
00000350: f10c 4e3d 5ddc fcbd 37ba 673e 444c 69be
00000360: 605d 0fbe abdc cebd 9685 94bb 57b4 15bc
00000370: fa36 9b3c 4f8e f93d da20 833d 76e8 95bd
00000380: 947d f6bd 155a aabc b417 af3c 1ba3 123d
00000390: 3902 de3b e095 e4bc 1c0b be3e 922d 0a3e
000003a0: db60 20be 7c5b 19be 40b8 d83e 00b6 cb3c
000003b0: d36c 413d 13d4 0b3e 883a 123c 120d 4d3d
000003c0: 341d 8b3d 9da6 693d 11e6 4abd 28d1 dbbd
000003d0: 3af7 94bd bf4d ee3c c53b 823d 2e78 613e
000003e0: 802f 933e 3cdb f83e ee9e 6e3e 5f5c 71bd
000003f0: 952b 853d a38f c0bd c4fe 5e3c c1e6 323d

fc1.bias f4 [400]
0.13096371 -0.05491822 -0.16716802 0.00025705324 -0.14241602 0.096051656 0.04298736 0.12305786
-0.015322578 -0.12650391 0.14021215 -0.12592138 0.10902071 0.024069652 0.058986466 -0.13253404
-0.14375441 -0.08424966 -0.115220144 -0.15069045 -0.048356265 0.16622362 0.13155077 0.1556701
0.045791462 -0.13058189 0.11163277 0.17109144 -0.11040532 -0.0024285594 0.03901336 0.09783921
0.0115568265 -0.17251562 -0.020738637 -0.11866521 0.09556575 0.12295565 0.015920622 -0.14624628
-0.057011396 -0.06205396 0.08021816 0.1062574 0.11034596 -0.05593451 0.06987322 -0.0435868
0.013357934 0.0028672041 -0.13913544 0.043034345 0.0047232597 -0.022202441 -0.17089061 -0.12017904
0.1523206 -0.1694092 -0.075320534 -0.07969938 0.1077387 -0.03579897 -0.14089616 0.13102305
0.15486753 0.027122406 -0.14113916 0.09589578 0.07713697 0.024499325 -0.017179487 0.032850523
-0.13356832 0.12898861 -0.004985621 -0.16007523 0.14189945 -0.06386617 0.01441875 0.07768483
0.038993042 0.13739948 -0.1584801 0.047304533 1.7754715e-05 -0.007964524 -0.10404186 -0.11360717
0.061229974 0.012334061 0.00615614 0.10108822 0.024965497 0.012311261 0.112564504 -0.0012355301
0.16177896 -0.14277348 0.07951997 0.044755597 0.017878463 -0.05192032 -0.034353167 0.05180666
0.014272853 -0.14033034 -0.15344661 -0.08713852 -0.17113192 -0.05858227 0.045939695 -0.10141217
0.027843764 0.16372693 -0.08338129 0.15974279 -0.007896503 -0.16976455 -0.04604976 0.031084621
0.13687982 -0.057006124 -0.1222342 0.15186527 0.030720398 -0.048553456 -0.078981176 0.072615676
0.14599416 -0.010464262 0.03280905 0.040626716 -0.024786845 0.08879146 0.16438964 0.08284904
0.1408021 0.051854078 -0.03311115 0.050158642 -0.0997329 -0.056197297 0.032285474 0.05577863
-0.1373196 0.043379333 0.09886647 -0.1388664 0.064755455 -0.048481833 0.115035616 0.1687345
0.08754701 -0.13607426 0.060272258 -0.08656372 0.12585217 0.058688845 0.076558314 -0.12901756
-0.17136778 -0.10985244 0.16137786 0.081721015 0.046771813 -0.13967288 -0.052086476 0.007506649
-0.025296932 0.15965833 -0.16843359 -0.031855434 0.117020324 0.11241419 -0.1326377 0.08015729
-0.015722886 -0.11112395 -0.014951746 -0.13104881 -0.052523717 0.17363723 -0.1466671 -0.14036228
0.100024186 0.10286698 -0.11191488 -0.045567412 -0.00096698833 -0.14153723 0.011870445 -0.05441071
-0.054508265 0.06039302 -0.08601914 0.015184899 0.1579185 0.13125584 0.11769989 0.14602213
-0.06518859 0.15814182 -0.16286035 0.16556738 0.17327562 0.08967739 0.009102359 0.045988448
-0.08678416 -0.10534176 -0.11233721 0.09953709 -0.13822824 0.0153054325 0.05992069 -0.12937535
-0.123636074 0.0022678643 -0.147209 0.0225999 -0.12154251 -0.11364721 -0.07780774 0.04135637
-0.049837895 -0.15656999 -0.07681951 -0.052665878 0.13761882 0.13116105 0.012261999 0.068813585
-0.17216581 -0.013676565 0.08701205 0.06357789 -0.08204902 0.11451493 0.06414977 -0.10993827
0.04395431 -0.13887802 0.109588504 0.11846805 -0.0033727675 0.0677589 -0.09668946 -0.08561598
-0.03257474 -0.119892806 -0.030216683 -0.0007799052 -0.07803395 0.1100474 0.056821972 0.09518877
00000000: 5a1b 063e edf1 60bd 182e 2bbe 1ac5 8639
00000010: 81d5 11be bbb6 c43d 8413 303d c205 fc3d
00000020: 8d0b 7bbc 3e8a 01be c693 0f3e 89f1 00be
00000030: 4046 df3d b82d c53c cb9b 713d 01b7 07be
00000040: 5b34 13be 168b acbd 8af8 ebbd 994e 1abe
00000050: 3811 46bd 8636 2a3e 3fb5 063e fc67 1f3e
00000060: d48f 3b3d 42b7 05be b99f e43d 9832 2f3e
00000070: 2f1c e2bd 7728 1fbb 79cc 1f3d ec5f c83d
00000080: d858 3d3c efa7 30be 13e4 a9bc bf06 f3bd
00000090: fab7 c33d 2cd0 fb3d f76b 823c 96c1 15be
000000a0: c884 69bd 4b2c 7ebd 6b49 a43d 7b9d d93d
000000b0: 10fd e13d 961b 65bd b119 8f3d 1388 32bd
000000c0: 3cdb 5a3c b4e7 3b3b 8579 0ebe c844 303d
000000d0: 93c5 9a3b e5e1 b5bc f3fd 2ebe 6e20 f6bd
000000e0: eef9 1b3e 9b79 2dbe a741 9abd 6e39 a3bd
000000f0: 1ca6 dc3d f1a1 12bd 1547 10be e82a 063e
00000100: 9895 1e3e cf2f de3c c986 10be 0265 c43d
00000110: fdf9 9d3d cfb2 c83c ffbb 8cbc 458e 063d
00000120: 22c6 08be 9715 043e 6c5e a3bb c3ea 23be
00000130: 174e 113e 44cc 82bd 9f3c 6c3c 3919 9f3d
00000140: 2bb7 1f3d 73b2 0c3e 9b48 22be 66c2 413d
00000150: f6ef 9437 a37d 02bc e613 d5bd e0aa e8bd
00000160: 48cc 7a3d cd14 4a3c 72b9 c93b 5707 cf3d
00000170: 7184 cc3c 2cb5 493c 3888 e63d 83f1 a1ba
00000180: 62a9 253e 3633 12be 5edb a23d a551 373d
00000190: db75 923c 67aa 54bd e8b5 0cbd 3833 543d
000001a0: afd8 693c c2b2 0fbe 1c21 1dbe ae75 b2bd
000001b0: 353d 2fbe f6f3 6fbd 432b 3c3d 2fb1 cfbd
000001c0: 9b18 e43c 08a8 273e cfc3 aabd 9d93 233e
000001d0: 5660 01bc c2d6 2dbe ac9e 3cbd 2da5 fe3c
000001e0: 392a 0c3e 417f 69bd ed55 fabd 9282 1b3e
000001f0: 58a9 fb3c fddf 46bd e2c0 a1bd 87b7 943d
00000200: 7e7f 153e 4c72 2bbc c862 063d 3368 263d
00000210: c80d cbbc 4cd8 b53d c255 283e c2ac a93d
00000220: 6d2e 103e f164 543d 8f9f 07bd 2673 4d3d
00000230: c340 ccbd 232f 66bd c63d 043d 2278 643d
00000240: 829d 0cbe 87ae 313d 817a ca3d fe32 0ebe
00000250: 829e 843d e394 46bd cb97 eb3d bdc8 2c3e
00000260: d94b b33d 0d57 0bbe 0be0 763d 5248 b1bd
00000270: 64df 003e b763 703d 9bca 9c3d 2e1d 04be
00000280: 097b 2fbe 51fa e0bd 3d40 253e 595d a73d
00000290: cd93 3f3d 6806 0fbe a158 55bd 56fa f53b
000002a0: 833b cfbc 797d 233e db79 2cbe d87a 02bd
000002b0: 5aa8 ef3d 6939 e63d 2dd2 07be 8129 a43d
000002c0: 48cd 80bc f494 e3bd 2bf8 74bc a931 06be
000002d0: 1c23 57bd f5cd 313e e62f 16be 21bb 0fbe
000002e0: 7bd9 cc3d ecab d23d a133 e5bd e5a4 3abd
000002f0: 7d7d 7dba 23ef 10be 417c 423c c4dd 5ebd
00000300: 0f44 5fbd ac5e 773d ce2a b0bd 15ca 783c
00000310: 63b5 213e ee67 063e a40c f13d d386 153e
00000320: 9881 85bd eeef 213e ddc4 26be 7f8a 293e
00000330: 2a6f 313e c8a8 b73d 1022 153c 625e 3c3d
00000340: e5bb b1bd 6cbd d7bd 0d11 e6bd 1ada cb3d
00000350: b48b 0dbe a3c3 7a3c 666f 753d f97a 04be
00000360: e934 fdbd 73a0 143b f5bd 16be 6d23 b93c
00000370: 48eb f8bd debf e8bd aa59 9fbd 4c65 293d
00000380: d222 4cbd e253 20be 8c53 9dbd 2db8 57bd
00000390: f3eb 0c3e 154f 063e 8de6 483c 23ee 8c3d
000003a0: 3c4c 30be ac13 60bc 6033 b23d 2035 823d
000003b0: 5109 a8bd ce86 ea3d f460 833d 5127 e1bd
000003c0: 6f09 343d 0a36 0ebe f06f e03d 619f f23d
000003d0: a609 5dbb 2ec5 8a3d 2005 c6bd 6e57 afbd
000003e0: 176d 05bd 5c8a f5bd fa88 f7bc 8d72 4cba
000003f0: 43d0 9fbd 8860 e13d 28be 683d 54f2 c23d

fc2.weight f4 [300, 400]
-0.037631564 -0.0074399076 -0.023369439 -0.11099097 -0.10477815 0.020807223 -0.0124791125 -0.019947648
0.07884791 -0.12849109 -0.05032386 0.03525363 0.012604509 -0.036102463 -0.00057487393 -0.047356516
0.08641614 -0.021421717 -0.015058358 -0.1409722 -0.23381834 0.031626277 -0.3243888 -0.08491049
-0.056895778 -0.020032575 -0.13928165 -0.19945596 -0.109230645 -0.04030551 0.04138625 0.03573445
-0.08064973 0.03304103 -0.0068594795 -0.098543696 -0.15907307 -0.10205702 -0.08147945 -0.11289213
0.01771522 -0.08247391 -0.021585861 -0.26845366 0.0029833145 -0.003463489 -0.14471418 -0.020781122
-0.08630764 -0.04154613 -0.20132177 -0.008568915 -0.09016231 -0.15328284 -0.027723525 -0.022603549
0.04963082 0.04915779 -0.1000629 -0.031393275 -0.1316321 0.047732428 0.021182321 -0.042052474
0.03055517 -0.14735393 -0.044645358 0.09107648 -0.14368524 -0.14860794 -0.2104791 -0.047142953
0.040382985 -0.04735136 -0.049194362 -0.032274425 -0.06106522 -0.10261261 -0.034526445 -0.029791463
0.01754905 -0.055177756 0.03161374 -0.14138961 -0.13872842 0.04032854 -0.08854109 -0.20066799
-0.03498063 -0.07757588 -0.0031278676 -0.094853 0.056018624 0.012759104 -0.08404352 -0.04954913
0.00042174768 -0.12996091 0.06924638 0.0513814 -0.032786645 -0.1663655 -0.077289574 0.01900278
0.036279827 0.0628172 0.083239615 -0.13260542 0.19420312 0.020781139 -0.043627158 -0.05760216
-0.02387769 0.049458858 -0.16879767 -0.11034186 -0.028730115 -0.06446603 -0.043234378 -0.040908728
-0.119328015 -0.085899174 0.028395453 0.0006762659 0.039021745 -0.074664965 -0.074524514 -0.090133145
-0.23597471 -0.06022058 0.039426025 -0.15399472 -0.16880028 -0.08879184 0.09578378 0.14084299
-0.016686022 -0.05626676 -0.029472502 -0.042891365 -0.04270676 -0.026149578 -0.06006863 -0.047457244
-0.20552714 -0.054455817 -0.03752369 0.029019874 -0.0035431043 0.07535667 -0.066035636 0.004811482
0.047725268 -0.05947221 -0.059628595 0.08045234 -0.034123592 -0.29775763 -0.08163055 0.0005752928
-0.052672148 -0.07272129 -0.018737165 0.115583666 -0.025752936 0.0079730805 0.09485181 -0.06879755
0.10954386 0.07626717 -0.048818607 -0.08900481 -0.029286908 0.019166226 0.049851406 0.05345369
-0.05555334 -0.06288211 -0.027587267 0.043723542 -0.037407104 -0.019883424 0.066422544 -0.06459011
0.012794479 -0.09145854 -0.0612597 0.005187742 0.024728367 -0.06844474 0.0057021505 -0.0082649095
-0.03934297 -0.1288235 -0.07456263 0.002382467 -0.1359958 -0.08815442 -0.02965928 -0.14540282
-0.039375897 -0.0011533287 -0.04200825 0.121502966 -0.03241142 -0.052072037 -0.11242089 0.016403692
-0.09432621 0.019223131 -0.038758684 -0.033419777 -0.102989234 -0.06022483 0.08610199 0.006582645
-0.011017382 -0.03461984 -0.108007394 -0.014928765 0.053689264 -0.005902258 0.042962417 -0.1955591
-0.06160974 -0.039694425 0.06497168 -0.03158568 0.02947365 -0.05519878 -0.065971665 0.016317165
-0.074039884 -0.129366 -0.110096015 -0.04830853 -0.08009853 -0.09838605 0.041838154 -0.00945363
-0.18486905 -0.010408833 -0.07390564 -0.29200062 0.016893614 -0.09648971 -0.12113434 -0.0612985
-0.14499731 0.012954763 0.040280264 -0.094197005 -0.09209806 -0.026178999 -0.029079989 0.043598153
00000000: 8e23 1abd 78ca f3bb 4471 bfbc 3c4f e3bd
00000010: ed95 d6bd e973 aa3c 3175 4cbc 4069 a3bc
00000020: 037b a13d 2b93 03be 6420 4ebd 1c66 103d
00000030: 2483 4e3c 2de0 13bd 23b3 16ba e8f8 41bd
00000040: f2fa b03d 997c afbc 55b7 76bc 045b 10be
00000050: 136e 6fbe 8e8a 013d 4a16 a6be 8de5 adbd
00000060: 8c0b 69bd 5b1b a4bc d99f 0ebe 2f3e 4cbe
00000070: 51b4 dfbd 6417 25bd a184 293d 495e 123d
00000080: b02b a5bd 0856 073d 7cc5 e0bb 47d1 c9bd
00000090: 0de4 22be 4503 d1bd b3de a6bd fd33 e7bd
000000a0: 821f 913c 15e8 a8bd d5d4 b0bc c272 89be
000000b0: b683 433b b4fb 62bb f42f 14be 2c3d aabc
000000c0: 0fc2 b0bd 462c 2abd 4b27 4ebe a264 0cbc
000000d0: 04a7 b8bd 2df6 1cbe 721c e3bc 142b b9bc
000000e0: b049 4b3d ae59 493d c7ed ccbd 3c96 00bd
000000f0: 91ca 06be 1483 433d 8c86 ad3c 373f 2cbd
00000100: d64e fa3c f3e3 16be 0dde 36bd 4e86 ba3d
00000110: 3922 13be ae2c 18be d587 57be f818 41bd
00000120: a168 253d 80f3 41bd 0780 49bd 3032 04bd
00000130: 861f 7abd 8f26 d2bd 9a6b 0dbd 3a0d f4bc
00000140: 06c3 8f3c 1202 62bd 697d 013d 70c8 10be
00000150: d30e 0ebe 8a2f 253d 0855 b5bd e97b 4dbe
00000160: d947 0fbd 1ae0 9ebd e9fc 4cbb 4a42 c2bd
00000170: c973 653d 900b 513c 021f acbd 07f4 4abd
00000180: 041e dd39 7914 05be 0cd1 8d3d 4e75 523d
00000190: 4a4b 06bd b85b 2abe ff49 9ebd b8ab 9b3c
000001a0: 289a 143d 4ea6 803d 8879 aa3d b7c9 07be
000001b0: 2fdd 463e 353d aa3c 64b2 32bd 3ef0 6bbd
000001c0: 259b c3bc 5f95 4a3d 4cd9 2cbe eafa e1bd
000001d0: 6b5b ebbc c406 84bd 8816 31bd e98f 27bd
000001e0: 3f62 f4bd e8eb afbd 959d e83c 7047 313a
000001f0: 44d5 1f3d f2e9 98bd 4fa0 98bd ba97 b8bd
00000200: 5ba3 71be dba9 76bd 2f7d 213d cbb0 1dbe
00000210: fbd9 2cbe 7fd8 b5bd 492a c43d 2539 103e
00000220: 20b1 88bc f977 66bd 5170 f1bc dbae 2fbd
00000230: 49ed 2ebd a437 d6bc 860a 76bd 8762 42bd
00000240: b575 52be 100d 5fbd 71b2 19bd 16bb ed3c
00000250: 6d33 68bb 9954 9a3d b13d 87bd a3a9 9d3b
00000260: 927b 433d 2299 73bd 1d3d 74bd 32c4 a43d
00000270: 2ec5 0bbd b073 98be eb2d a7bd 3fcf 163a
00000280: c0be 57bd e6ee 94bd af7e 99bc 21b7 ec3d
00000290: d2f7 d2bc 86a1 023c aa41 c23d bbe5 8cbd
000002a0: 8858 e03d f631 9c3d 05f6 47bd 2748 b6bd
000002b0: 19eb efbc 7d02 9d3c fd30 4c3d 42f2 5a3d
000002c0: e68b 63bd 56c8 80bd b1fe e1bc 7517 333d
000002d0: 3138 19bd 90e2 a2bc 8b08 883d d247 84bd
000002e0: ef9f 513c 9d4e bbbd 74eb 7abd effd a93b
000002f0: 2593 ca3c c12c 8cbd 1bd9 ba3b 8b69 07bc
00000300: 1826 21bd 4fea 03be 4bb4 98bd 2a23 1c3b
00000310: 7c42 0bbe 4e8a b4bd 05f8 f2bc 7ae4 14be
00000320: 9f48 21bd 4a2b 97ba d810 2cbd 8cd6 f83d
00000330: d6c1 04bd 7d49 55bd ec3c e6bd 0961 863c
00000340: 1a2e c1bd d479 9d3c 6dc1 1ebd 2de3 08bd
00000350: 05ec d2bd 50ae 76bd 3d56 b03d 3ab3 d73b
00000360: 4082 34bc 89cd 0dbd fb32 ddbd c797 74bc
00000370: 46e9 5b3d bb67 c1bb 5cf9 2f3d a540 48be
00000380: 7f5a 7cbd 9f96 22bd df0f 853d fc5f 01bd
00000390: b972 f13c 1e18 62bd 271c 87bd 93ab 853c
000003a0: 39a2 97bd 8578 04be 057a e1bd 2adf 45bd
000003b0: b30a a4bd a07e c9bd 7c5e 2b3d 66e3 1abc
000003c0: 504e 3dbe cf89 2abc d75b 97bd 1b81 95be
000003d0: 7a64 8a3c 669c c5bd 4815 f8bd 2314 7bbd
000003e0: 2d7a 14be 3740 543c ebfc 243d 5cea c0bd
000003f0: e89d bcbd 5775 d6bc 2839 eebc fa93 323d

fc2.bias f4 [300]
0.014451307 -0.052642122 -0.012499823 0.011513763 -0.13735558 -0.035877086 -0.018471962 -0.07508751
0.02899342 -0.04619276 0.052938428 -0.0027062576 -0.35436696 -0.049650986 0.09208432 -0.058682468
-0.28864387 -0.026094241 -0.087839894 -0.09383792 -0.11115045 -0.0075837458 -0.24885596 0.015177951
0.06453336 0.025664218 -0.21529678 0.20732644 -0.23272738 0.07713954 -0.034591198 0.16876364
0.0341809 -0.08846209 -0.0713455 0.025432648 -0.07178894 0.052432694 -0.06284933 -0.1182226
-0.043786537 -0.045642536 -0.09087368 -0.111301586 -0.10890503 -0.15625077 -0.25573152 0.15093327
-0.1140105 -0.24133453 -0.0714825 0.03176231 0.087343276 -0.17093797 0.15399241 -0.21680407
-0.022498734 0.15084049 -0.12185373 -0.3752756 -0.1901116 -0.02175508 -0.038210813 -0.21335967
-0.22475375 -0.10447833 -0.057265762 -0.0067371484 0.032540046 0.1397041 -0.1476653 -0.31126314
-0.11373301 -0.16351256 -0.032148983 -0.2354589 0.026875613 -0.056101847 0.01658312 -0.28089446
-0.035267904 -0.28597534 -0.05067019 -0.11190567 -0.027081357 -0.15435965 -0.026472334 -0.046022676
0.064221196 -0.1959424 0.07928452 -0.10045359 -0.18748528 -0.10968603 -0.389282 -0.06603825
-0.03878134 -0.22255589 -0.08871112 0.033663113 -0.2787661 -0.081328146 0.025234178 0.03845102
-0.027431464 0.03342561 -0.2582523 -0.009406862 -0.1241546 -0.014842665 0.025508178 -0.08028587
-0.06765678 -0.003430068 0.017492203 -0.2325778 -0.050754763 -0.08095643 -0.16198105 -0.07195724
0.036570687 -0.09682033 -0.054820884 0.06637246 0.087522686 -0.31329688 -0.121609114 -0.19389015
-0.32648718 -0.026909184 -0.1353513 -0.13338156 -0.12336218 -0.17024438 -0.11546989 -0.14081287
0.1062601 0.12547179 0.11621272 -0.25258607 0.104187824 -0.0007087526 -0.1893682 -0.025041716
-0.23777603 -0.00921868 -0.1633143 -0.28218463 0.1287362 0.110464536 -0.07064696 -0.08497389
-0.18014976 -0.06492273 -0.3087344 0.060476195 -0.1769587 -0.1680794 0.07820994 0.19161405
-0.16699727 -0.24070099 0.055741016 -0.27670765 -0.22735517 -0.09037987 -0.21573678 -0.12198051
-0.24992101 -0.30946568 -0.19316694 0.04697269 -0.10866805 -0.14318107 -0.23458652 -0.015362584
0.0945288 0.33573484 -0.037193596 0.13485433 -0.16369298 -0.005223828 0.01270334 0.054983933
-0.0009344202 -0.12511677 -0.19482714 0.08832515 -0.0053861844 0.052437328 -0.029808428 0.104257256
0.062078252 -0.22500572 0.016231954 0.0525161 -0.027493633 -0.13754773 0.08775909 0.13688791
-0.25006285 -0.110574834 -0.12712118 -0.25330722 -0.08092499 -0.0925762 0.010333208 -0.00023015321
-0.021862805 0.01541784 0.07825047 -0.09766514 -0.19513781 -0.10967332 -0.26726463 -0.028528132
-0.082299754 -0.3499649 -0.0016638353 0.05099599 -0.08317061 0.012117053 -0.3009802 -0.0028469635
0.0967713 -0.11321028 -0.07224242 -0.0965087 0.015362755 -0.011170264 0.186485 -0.0053275498
0.108164914 -0.1550152 -0.031852394 0.08575235 0.0021841233 -0.07642601 -0.09272503 -0.23306093
-0.18277757 -0.0040550455 -0.05615549 -0.0059017334 0.15438578 -0.31454846 -0.1449999 -0.36796203
-0.104440674 -0.06750193 0.2538976 0.18970081 -0.008446516 -0.15171218 -0.0015409028 0.051454052
00000000: 2dc5 6c3c 449f 57bd 0fcc 4cbc 39a4 3c3c
00000010: f1a6 0cbe daf3 12bd 8352 97bc 7bc7 99bd
00000020: 9c83 ed3c 9f34 3dbd f7d5 583d 785b 31bb
00000030: 966f b5be d55e 4bbd b496 bc3d 075d 70bd
00000040: 21c9 93be 97c3 d5bc 67e5 b3bd 182e c0bd
00000050: d9a2 e3bd 1281 f8bb 19d4 7ebe f1ac 783c
00000060: 112a 843d c43d d23c c276 5cbe 624d 543e
00000070: 1650 6ebe 56fb 9d3d 80af 0dbd 60d0 2c3e
00000080: 4501 0c3d 9d2b b5bd 971d 92bd 2158 d03c
00000090: 1406 93bd aac3 563d 26b7 80bd b11e f2bd
000000a0: 8359 33bd abf3 3abd fb1b babd 16f2 e3bd
000000b0: 9a09 dfbd 3400 20be 3eef 82be 408e 1a3e
000000c0: 567e e9bd 6620 77be 6b65 92bd 3219 023d
000000d0: 08e1 b23d 5d0a 2fbe 30b0 1d3e e301 5ebe
000000e0: 444f b8bc ee75 1a3e 738e f9bd 2024 c0be
000000f0: 9eac 42be b637 b2bc f182 1cbd f57a 5abe
00000100: d925 66be bcf8 d5bd 818f 6abd 4cc3 dcbb
00000110: b648 053d 970e 0f3e 9335 17be e25d 9fbe
00000120: daec e8bd d66f 27be a7ae 03bd 231c 71be
00000130: 3f2a dc3c 0dcb 65bd 53d9 873c 66d1 8fbe
00000140: 1475 10bd 5c6b 92be 8c8b 4fbd cd2e e5bd
00000150: b9d9 ddbc 7510 1ebe 82dc d8bc 4682 3cbd
00000160: 6786 833d 20a5 48be ec5f a23d 9dba cdbd
00000170: 24fc 3fbe 12a3 e0bd f84f c7be 103f 87bd
00000180: 2fd9 1ebd b1e5 63be 2dae b5bd 55e2 093d
00000190: 6eba 8ebe 5f8f a6bd e8b7 ce3c d17e 1d3d
000001a0: f3b7 e0bc 4be9 083d a539 84be 3d1f 1abc
000001b0: c444 febd a62e 73bc 87f6 d03c eb6c a4bd
000001c0: a38f 8abd feca 60bb cf4b 8f3c e028 6ebe
000001d0: 3ae4 4fbd 7ccc a5bd 5cde 25be 515e 93bd
000001e0: 25cb 153d bd49 c6bd dd8b 60bd 49ee 873d
000001f0: 183f b33d 7368 a0be 330e f9bd 248b 46be
00000200: 5429 a7be a670 dcbc 8899 0abe 2d95 08be
00000210: 50a5 fcbd 8b54 2ebe 7a7b ecbd 4031 10be
00000220: e59e d93d ad7b 003e ef00 ee3d f652 81be
00000230: 6d60 d53d 95cb 39ba bde9 41be 4924 cdbc
00000240: 8f7b 73be f209 17bc dd3b 27be 817a 90be
00000250: 6cd3 033e 3b3b e23d 5aaf 90bd ca06 aebd
00000260: 2e79 38be 35f6 84bd 6f12 9ebe e3b5 773d
00000270: a934 35be 021d 2cbe 882c a03d 7936 443e
00000280: 5501 2bbe 527a 76be b150 643d a0ac 8dbe
00000290: cbcf 68be 1519 b9bd 1aea 5cbe ebd0 f9bd
000002a0: 4beb 7fbe 4972 9ebe 8ecd 45be 6f66 403d
000002b0: 5b8d debd 0f9e 12be 7337 70be 59b3 7bbc
000002c0: 5198 c13d 70e5 ab3e 5058 18bd 4117 0a3e
000002d0: 229f 27be a52c abbb ab21 503c d536 613d
000002e0: e1f3 74ba 9c1e 00be c480 47be d1e3 b43d
000002f0: 977e b0bb 86c8 563d ce30 f4bc d484 d53d
00000300: c445 7e3d e667 66be e0f8 843c 1f1b 573d
00000310: 543a e1bc 50d9 0cbe 0abb b33d 582c 0c3e
00000320: 3d08 80be 0f75 e2bd 0e2c 02be 7cb1 81be
00000330: 00bc a5bd 9798 bdbd 9e4c 293c 4855 71b9
00000340: a019 b3bc 1c9b 7c3c c841 a03d a904 c8bd
00000350: 35d2 47be 689c e0bd e9d6 88be d4b3 e9bc
00000360: c68c a8bd 992e b3be 0c15 daba 2ce1 503d
00000370: 5a55 aabd 9b86 463c 141a 9abe 1f94 3abb
00000380: 0830 c63d cbda e7bd d5f3 93bd 5aa6 c5bd
00000390: 11b4 7b3c 7c03 37bc edf5 3e3e ba92 aebb
000003a0: 9185 dd3d 4ebc 1ebe a877 02bd ee9e af3d
000003b0: 8223 0f3b 3d85 9cbd 9fe6 bdbd 86a7 6ebe
000003c0: 0b2a 3bbe 30e0 84bb 4d03 66bd 5463 c1bb
000003d0: 4e17 1e3e 7f0c a1be db7a 14be 8565 bcbe
000003e0: fee4 d5bd 743e 8abd defe 813e ee40 423e
000003f0: 4163 0abc 705a 1bbe 1ef8 c9ba 7cc1 523d

fc3.weight f4 [4, 300]
-0.026849002 -1.070345 -0.12812121 -0.35246632 -0.8091275 -0.2258095 0.24651845 0.19447838
0.87001294 0.7992962 -0.6452362 0.7093572 -0.1107124 -1.2404903 0.2390983 0.23706229
0.6906066 -0.0740162 0.746435 -0.18620566 -0.0010146 -0.45410693 -0.77714163 -0.43774575
0.03830325 -0.1841896 -0.79809237 0.2208076 0.37867644 -0.63541466 0.6045283 -0.43698612
-0.28867382 0.4733295 1.1229023 -0.2927242 0.63473666 0.9445985 0.99386716 0.29470438
0.0777067 -0.16645195 -0.18077654 0.11275345 1.0183742 0.0528987 -0.03819651 1.182295
0.46664494 0.54519856 0.25172222 0.43374377 0.5000981 0.51533604 -0.57249093 -0.91377234
0.033641215 0.10366631 -0.24468477 -0.4827751 -0.41054517 -0.20750797 -1.5011377 0.61136657
0.13863355 0.04316647 0.8151583 0.31457755 -0.48463917 0.5312379 -0.4085295 -0.35782567
0.24258418 0.24606033 0.08899555 0.13389438 -0.8538339 -0.33225358 -0.4836074 -0.63137645
-0.18838869 -0.21852258 -0.6568664 0.16525 0.24470618 0.23231225 -0.44124892 -0.35126486
-0.35345823 0.32881823 0.7573653 -0.7323956 -0.51963025 0.6427725 0.5186653 -0.76882356
0.6120783 -0.4154648 0.35408226 -0.34912446 -0.12262132 0.230825 0.29042187 -0.24100593
-0.8791086 -0.48832273 -0.04265868 -0.14590949 0.013689877 0.23003031 -0.09843927 -0.086266525
0.36981007 -0.048581496 -0.16811767 0.0101358965 0.29677218 0.48118696 -0.3776715 0.26817167
1.4308027 0.28859782 0.27194887 0.50356436 0.7218695 -0.20886238 -0.20083788 -0.11940698
0.66404504 0.3456719 -1.053951 0.7622194 -0.26791856 0.36375356 -0.3797094 -0.7680212
-1.0161016 0.6908561 1.3529655 -0.11908104 0.36722836 0.1761026 -0.9684281 -0.9452676
0.69478464 1.1683061 -0.19766545 0.5681905 -1.0629452 0.38182405 -1.1207125 -0.7119167
1.0362905 0.0201728 -0.6626217 -0.81773186 0.46938813 0.6012836 0.64349073 1.0347352
0.86220765 -0.4019397 0.19943738 -0.5741545 -0.6762024 -0.059765704 -0.20978339 0.48966342
0.029594947 0.15359983 0.0025486422 -0.069788076 0.09043441 0.64562416 -0.18588707 1.0871817
0.49839672 0.33507574 0.38565037 -0.6586424 0.5763612 -0.1623218 -0.41584826 -0.07368071
0.35498124 0.14596431 -0.5942789 0.51288503 -0.071894675 -1.2312506 1.2938159 0.7885915
0.2841488 -0.13151039 0.11241932 -0.663728 0.3859626 -0.093097165 0.14892018 -0.08533954
0.63011575 -0.49746835 0.428877 -0.564437 0.61440206 0.8886644 -0.0940225 0.23028843
0.8941743 -0.37597296 0.64367 -0.5610316 0.20575939 0.84541595 -0.7346656 0.06682223
-0.06665137 0.035209972 -0.23252018 -0.09604617 0.5330802 0.21504505 -0.42596367 -0.5549653
-0.7155476 -0.16555767 0.6420425 0.30619755 0.2709494 -0.08915112 -0.7662314 -0.1829056
0.90250254 0.57389176 0.12648362 0.23683025 1.0364199 -0.94461274 -0.39377734 0.95340115
0.6291099 0.39376023 0.6304693 0.059118703 1.3683892 -0.58865684 -0.6117839 0.013794579
0.02281202 0.05208526 0.028230434 -0.21645235 0.09120422 -0.2428337 -0.32496196 1.51567
00000000: 70f2 dbbc 1101 89bf 3532 03be 7776 b4be
00000010: fb22 4fbf 9b3a 67be 556f 7c3e 5725 473e
00000020: 2bb9 5e3f ad9e 4c3f 332e 25bf 6f98 353f
00000030: 2fbd e2bd 63c8 9ebf 2fd6 743e 75c0 723e
00000040: 98cb 303f ce95 97bd 5d16 3f3f b2ac 3ebe
00000050: 54fc 84ba b480 e8be c1f2 46bf 3620 e0be
00000060: dee3 1c3d 339c 3cbe c84f 4cbf 631b 623e
00000070: e1e1 c13e 89aa 22bf 5ec2 1a3f a5bc dfbe
00000080: 0ecd 93be 3f58 f23e 43bb 8f3f f2df 95be
00000090: 1a7e 223f 35d1 713f 146e 7e3f 7ee3 963e
000000a0: b124 9f3d 6172 2abe 7c1d 39be 48eb e63d
000000b0: 165a 823f 4fac 583d f273 1cbd 7155 973f
000000c0: 16ec ee3e 2292 0b3f bce1 803e aa13 de3e
000000d0: 6e06 003f 10ed 033f c48e 12bf fcec 69bf
000000e0: 5fcb 093d 014f d43d a58e 7abe 4c2e f7be
000000f0: fa32 d2be f87c 54be 4825 c0bf 8582 1c3f
00000100: f4f5 0d3e 53cf 303d 37ae 503f 4f10 a13e
00000110: a022 f8be 35ff 073f c72a d1be ed34 b7be
00000120: fd67 783e 3df7 7b3e 4d43 b63d 9c1b 093e
00000130: dc94 5abf 241d aabe 649b f7be e3a1 21bf
00000140: f7e8 40be 62c4 5fbe 6528 28bf 4c37 293e
00000150: 4294 7a3e 43e3 6d3e 61eb e1be fdd8 b3be
00000160: 7af8 b4be dd5a a83e b1e2 413f 477e 3bbf
00000170: 7d06 05bf bd8c 243f 40c7 043f 9fd1 44bf
00000180: 2ab1 1c3f cdb7 d4be 454a b53e 71c0 b2be
00000190: e320 fbbd 645d 6c3e 2db2 943e 42ca 76be
000001a0: 430d 61bf 7005 fabe deba 2ebd 4c69 15be
000001b0: 824b 603c 118d 6b3e 879a c9bd 81ac b0bd
000001c0: bf57 bd3e 64fd 46bd 0a27 2cbe 0811 263c
000001d0: 86f2 973e 235e f63e 295e c1be cc4d 893e
000001e0: 8b24 b73f 18c3 933e e23c 8b3e 98e9 003f
000001f0: 71cc 383f 05e0 55be 72a8 4dbe a68b f4bd
00000200: dbfe 293f e8fb b03e dee7 86bf d020 433f
00000210: 9f2c 89be e83d ba3e 4569 c2be 0a9d 44bf
00000220: 9e0f 82bf f2db 303f f92d ad3f c3e0 f3bd
00000230: 5b05 bc3e 3d54 343e e7ea 77bf 0ffd 71bf
00000240: 68dd 313f 0e8b 953f d068 4abe ef74 113f
00000250: 970e 88bf 717e c33e 8273 8fbf 2c40 36bf
00000260: 2ba5 843f 6e41 a53c 93a1 29bf e056 51bf
00000270: a453 f03e b9ed 193f cfbb 243f 3472 843f
00000280: a4b9 5c3f 0acb cdbe 5039 4c3e cafb 12bf
00000290: 9a1b 2dbf e2cc 74bd 75d1 56be 2ab5 fa3e
000002a0: 1a71 f23c 4649 1d3e 1f07 273b 0ded 8ebd
000002b0: ad35 b93d a047 253f 2e59 3ebe c528 8b3f
000002c0: db2d ff3e 0c8f ab3e f773 c53e ca9c 28bf
000002d0: 688c 133f b037 26be 10ea d4be e9e5 96bd
000002e0: 1ac0 b53e ab77 153e a922 18bf 6f4c 033f
000002f0: 843d 93bd 9f99 9dbf c29b a53f 22e1 493f
00000300: f47b 913e a9aa 06be 1a3c e63d 14ea 29bf
00000310: e49c c53e baa9 bebd 887e 183e 7fc6 aebd
00000320: 444f 213f 2cb4 febe c495 db3e f17e 10bf
00000330: 7449 1d3f 837f 633f de8e c0bd bbd0 6b3e
00000340: 9be8 643f 877f c0be 8fc7 243f c49f 0fbf
00000350: 97b2 523e 2e6d 583f 0b13 3cbf 18da 883d
00000360: 8380 88bd 5538 103d c519 6ebe dbb3 c4bd
00000370: f277 083f c534 5c3e e917 dabe 3512 0ebf
00000380: 212e 37bf f387 29be e65c 243f edc5 9c3e
00000390: e1b9 8a3e dd94 b6bd be27 44bf 9b4b 3bbe
000003a0: 680a 673f 92ea 123f ec84 013e a183 723e
000003b0: 68a9 843f 24d2 71bf 2f9d c9be 1912 743f
000003c0: 590d 213f f19a c93e 7066 213f 7426 723d
000003d0: 6127 af3f 37b2 16bf df9d 1cbf a802 623c
000003e0: 46e0 ba3c 5b57 553d 8343 e73c afa5 5dbe
000003f0: 47c9 ba3d 66a9 78be 6a61 a6be 7901 c23f

fc3.bias f4 [4]
-0.12979524 -0.19779772 -0.017082268 0.027319368
00000000: 0be9 04be 7c8b 4abe 1df0 8bbc decc df3c

bn1.weight f4 [400]
0.8820588 0.84480804 0.45448378 0.6731049 0.693854 0.50019544 0.5723286 0.8778394
0.62893856 0.896452 0.6736617 0.9690663 0.58863294 0.32238555 0.69717395 0.59994906
0.8131039 0.7885394 0.4665855 0.65907097 0.6683909 0.83733267 0.89476275 0.63132244
0.33285055 0.69401014 0.53486574 0.66476053 0.44748303 0.39454696 0.74596965 0.67630136
0.5689354 0.59894323 1.4056512 0.56709474 0.62571007 1.2859071 0.56161386 0.84701574
0.77249175 0.75169015 0.73464537 0.5026095 0.48122767 0.47137517 0.59060323 0.49831247
0.56495005 0.55167854 0.7252084 0.6043944 0.8560582 0.83180773 0.90867615 0.9666558
0.7165258 0.45978108 0.48232642 0.49924514 0.55726767 0.40025747 0.53647137 0.9406109
0.7084533 1.0765569 0.55191356 0.775332 0.6621336 0.8109165 0.8149931 0.50120807
0.5938086 0.57961106 0.6362048 0.5001836 0.49353206 0.40650666 0.64804775 0.54177994
0.28798938 0.6538828 0.9996113 0.5929404 0.6388101 0.5580882 0.7261967 0.64554006
0.75373554 0.7965575 0.72324085 0.67279774 0.5662234 0.7136179 0.8060869 0.5019964
0.7132271 0.7427568 0.67772007 0.8962606 0.050938755 0.8955191 0.7672005 0.43156475
0.9133456 0.8103259 0.7150004 0.93228483 1.3239969 0.5773522 0.6887056 0.34495068
0.67506826 0.64890987 0.94221187 0.9494598 0.7168646 0.50579405 0.6915365 0.55521286
0.44666952 0.6530834 1.0487667 0.785235 0.5530506 0.7459484 0.5848682 0.8213508
0.47354263 0.7013727 0.77053833 0.6668676 0.61385244 0.8919352 0.3937143 1.0445627
0.7839664 0.83543503 0.60609007 0.8561915 0.56120217 0.7506116 0.6927231 0.62456715
0.5700336 0.48319638 1.0781988 0.8408138 0.9111387 0.83397496 0.97557795 0.49467048
0.65829974 0.50246614 0.7668389 0.6160449 0.80156815 0.6802071 0.6266743 0.87134314
1.2152301 0.5112508 0.55956423 0.90201604 0.63581854 0.5758563 0.62564325 1.3512942
0.6031629 0.73808855 1.2228837 0.77610976 0.5904725 0.89630765 0.4621164 0.49887407
0.65921414 1.0551485 0.5046117 0.7652081 0.5191028 0.5475172 0.7226654 0.57173
0.7039097 0.7957191 0.6765878 0.5297795 0.86126965 0.58750224 0.63285387 0.9806474
0.75134724 0.25942048 0.52736044 0.8759437 1.052931 0.5446563 0.85534453 0.47665137
0.82390374 0.9435666 0.71301013 0.5601245 0.6741219 0.5207937 0.42470783 0.49521533
0.71596295 0.415742 0.5382939 0.5351198 0.6632412 0.68769956 0.5297118 0.5615913
0.5880587 0.6382523 0.69039077 1.2042063 0.6104532 0.6092076 0.4379706 0.49801663
0.7012255 0.4448084 0.55617285 0.29221392 0.536827 0.9241175 0.4192444 0.62981725
0.65577984 0.6204971 0.46012774 0.3492229 0.5843164 0.6868714 0.52066475 0.48645744
0.7456152 0.519418 0.44423544 0.7547102 0.5680169 0.77104676 0.7234407 0.5036622
0.52750885 0.60857105 0.8779775 0.3456248 0.50866127 0.43979648 0.59002304 0.67528427
00000000: 9bce 613f 5745 583f 19b2 e83e 9a50 2c3f
00000010: 6aa0 313f cf0c 003f 2184 123f 15ba 603f
00000020: 1e02 213f e17d 653f 1875 2c3f bb14 783f
00000030: a6b0 163f b80f a53e fe79 323f 4396 193f
00000040: 9427 503f b8dd 493f 4be4 ee3e e0b8 283f
00000050: ab1b 2b3f 6f5b 563f 2c0f 653f 599e 213f
00000060: 636b aa3e a6aa 313f f6ec 083f bf2d 2a3f
00000070: 7f1c e53e 0f02 ca3e def7 3e3f 1622 2d3f
00000080: c0a5 113f 5854 193f 61ec b33f 1f2d 113f
00000090: 892e 203f 9b98 a43f edc5 0f3f 06d6 583f
000000a0: 05c2 453f c46e 403f b811 3c3f 04ab 003f
000000b0: 7963 f63e 1658 f13e c631 173f d022 ff3e
000000c0: 91a0 103f ce3a 0d3f 42a7 393f 97b9 1a3f
000000d0: a126 5b3f 5af1 543f 009f 683f c176 773f
000000e0: 3c6e 373f 6d68 eb3e 7df3 f63e 0f9d ff3e
000000f0: 18a9 0e3f 8cee cc3e 3056 093f e0cb 703f
00000100: 325d 353f 9ecc 893f 354a 0d3f 287c 463f
00000110: 9681 293f 3998 4f3f 63a3 503f 2c4f 003f
00000120: d703 183f 6461 143f 51de 223f 080c 003f
00000130: 3cb0 fc3e a421 d03e 75e6 253f 17b2 0a3f
00000140: 5873 933e dd64 273f 87e6 7f3f f1ca 173f
00000150: 0f89 233f dede 0e3f 07e8 393f 1d42 253f
00000160: d0f4 403f 31eb 4b3f 5026 393f 793c 2c3f
00000170: 04f4 103f aaaf 363f b65b 4e3f d682 003f
00000180: 0d96 363f 4f25 3e3f 107f 2d3f 5671 653f
00000190: 28a5 503d bd40 653f 4167 443f 0ef6 dc3e
000001a0: 04d1 693f 8571 4f3f 440a 373f 38aa 6e3f
000001b0: bb78 a93f 5bcd 133f 034f 303f 609d b03e
000001c0: 46d1 2c3f f51e 263f cc34 713f cc0f 733f
000001d0: 7084 373f b87b 013f 8908 313f 6e22 0e3f
000001e0: deb1 e43e 7930 273f fd3d 863f 2905 493f
000001f0: b994 0d3f 79f6 3e3f ecb9 153f 0c44 523f
00000200: 2e74 f23e 298d 333f 0042 453f d6b7 2a3f
00000210: 6f25 1d3f de55 643f ec94 c93e 3bb4 853f
00000220: 06b2 483f 12df 553f b828 1b3f 5e2f 5b3f
00000230: f2aa 0f3f 1528 403f 4d56 313f a2e3 1f3f
00000240: b9ed 113f 8465 f73e 6b02 8a3f 933f 573f
00000250: 6340 693f 627f 553f 7abf 793f 7345 fd3e
00000260: 5586 283f 9fa1 003f 8e4f 443f 1eb5 1d3f
00000270: 9233 4d3f 0d22 2e3f ba6d 203f 5810 5f3f
00000280: a98c 9b3f 55e1 023f 9a3f 0f3f 86ea 663f
00000290: 01c5 223f 526b 133f 282a 203f 35f7 ac3f
000002a0: e268 1a3f 5ff3 3c3f 7487 9c3f 21af 463f
000002b0: 3529 173f 6b74 653f 859a ec3e 6c6c ff3e
000002c0: 42c2 283f 1b0f 873f 3b2e 013f aee4 433f
000002d0: ece3 043f 162a 0c3f 9a00 393f e65c 123f
000002e0: 6d33 343f 3fb4 4b3f dc34 2d3f a19f 073f
000002f0: 2b7c 5c3f 8c66 163f b602 223f b50b 7b3f
00000300: 4b58 403f c3d2 843e 1801 073f d93d 603f
00000310: 71c6 863f 986e 0b3f dcf7 5a3f a60b f43e
00000320: 5beb 523f 958d 713f d587 363f 5264 0f3f
00000330: 4193 2c3f bc52 053f 4e73 d93e dd8c fd3e
00000340: 5949 373f 23dc d43e a1cd 093f 9cfd 083f
00000350: 2dca 293f 140d 303f 319b 073f 73c4 0f3f
00000360: 048b 163f 8164 233f 73bd 303f 6f23 9a3f
00000370: a946 1c3f 07f5 1b3f af3d e03e 09fc fe3e
00000380: 8483 333f edbd e33e 5861 0e3f 109d 953e
00000390: 7f6d 093f f792 6c3f 34a7 d63e b43b 213f
000003a0: 30e1 273f e6d8 1e3f dd95 eb3e 58cd b23e
000003b0: c295 153f ced6 2f3f 494a 053f f310 f93e
000003c0: a3e0 3e3f 94f8 043f d472 e33e b034 413f
000003d0: 8e69 113f 5263 453f 6933 393f 02f0 003f
000003e0: d20a 073f 50cb 1b3f 22c3 603f bcf5 b03e
000003f0: a037 023f 012d e13e c00b 173f 6edf 2c3f

bn1.bias f4 [400]
-0.4149357 -0.5646444 -0.32200006 -0.5467892 -0.6504433 -0.06936793 -0.25290838 -0.35568637
-0.21208534 -0.20348129 -0.3826259 0.070896566 -0.24676265 0.23698674 0.023918869 -0.2913055
-0.6102872 -0.2049734 -0.4244528 -0.35231072 -0.18592672 -0.25794414 -0.5188915 -0.4779276
0.18356346 -0.18868482 -0.19217272 0.015104424 -0.26218417 -0.19546531 -0.18244337 -0.08859349
-0.078546345 -0.65583074 -0.56650513 0.0835982 -0.36163676 -0.6230491 -0.37234038 -0.43505618
-0.73856944 -0.4318456 -0.25994015 -0.1223416 -0.44830048 -0.15181433 0.17287096 -0.17845987
-0.3274942 -0.45000935 -0.04049494 -0.1733164 -0.22330728 -0.5936482 -0.6083062 -0.29029205
-0.25779653 0.14183074 -0.33605987 -0.32318622 -0.16055098 -0.056223646 -0.39841032 -0.54054415
-0.12754141 -0.46305344 -0.22942571 -0.27970606 -0.26628795 -0.28393164 -0.27123395 -0.1934949
-0.2686332 -0.15259014 -0.27726868 -0.24995445 0.15417403 -0.518327 -0.33737743 -0.104493804
0.38147235 -0.1909887 -0.37589264 -0.17633997 -0.22597335 -0.3442349 -0.6888855 -0.4230107
-0.39379588 -0.57988375 -0.1482533 0.06668266 -0.14375539 -0.6750614 -0.4535105 -0.36088434
-0.5074032 -0.19307241 -0.21039829 -0.30807662 0.612237 -0.5393098 -0.33389235 -0.022625849
-0.36983925 -0.28106317 -0.20921904 -0.39949635 -0.24318443 -0.41168034 -0.13248885 -0.18607432
-0.2505655 0.30377385 -0.23132728 0.035590205 -0.45579913 -0.34724054 0.08607131 -0.5974047
0.06638569 -0.2504888 -0.6746445 -0.29958394 -0.21684025 -0.2358709 -0.1561159 -0.5649419
-0.1425966 -0.34802067 -0.48443726 -0.5058562 -0.1763357 -0.21800624 -0.4566266 -0.32544333
-0.40312028 -0.50878584 -0.5413368 -0.19195764 -0.1236313 -0.192027 -0.44687954 -0.11511214
-0.015359836 -0.37271953 -0.2701648 -0.2788743 -0.17748544 -0.3660681 -0.53608006 -0.032684606
-0.45644355 -0.2718074 -0.34567502 -0.34891632 -0.5898167 -0.39006728 -0.2984409 -0.2573637
-0.6124505 -0.42523092 -0.14238924 -0.30873945 -0.091608614 -0.5238884 -0.2841438 -0.45258912
-0.3002588 0.055582423 -0.37059832 -0.5041446 -0.2136414 -0.30343196 -0.43325517 -0.0024463928
-0.5527378 -0.49786985 -0.22921398 -0.30590168 -0.33841637 -0.033114437 -0.217563 -0.08988221
-0.03781248 -0.29452097 -0.5516203 -0.39071298 -0.6632086 -0.026697202 -0.2725815 -0.45087928
-0.41941023 0.28209412 0.14008465 -0.49322724 -0.49501804 -0.4331971 -0.2994323 -0.27736935
-0.40369678 -0.73851323 -0.22330606 -0.3947617 -0.31261182 -0.39242363 -0.28975138 -0.48554257
-0.3961035 -0.40398994 -0.28267953 -0.18825878 -0.1404829 -0.20198183 -0.12672731 -0.2972959
-0.24596241 -0.29814625 -0.22868112 -0.38115034 -0.45271596 -0.23590335 0.090012036 0.2114993
-0.23489249 -0.045296583 -0.5271581 0.25257298 -0.23483771 -0.061305217 -0.1369089 -0.5817501
-0.30532047 -0.42769203 -0.43320873 -0.026822079 -0.52401763 -0.20378906 -0.34776187 -0.0960659
0.03279101 -0.34220794 0.049632233 -0.10287974 -0.44361424 -0.113312 -0.19554581 -0.11892965
-0.13541518 -0.20997609 -0.17081504 -0.16439475 -0.077867724 -0.15436353 -0.18702674 -0.34904644
00000000: 7472 d4be 898c 10bf 31dd a4be 61fa 0bbf
00000010: 7483 26bf c610 8ebd 357d 81be 861c b6be
00000020: e62c 59be 665d 50be 8be7 c3be 3832 913d
00000030: 59af 7cbe a7ac 723e 81f1 c33c ff25 95be
00000040: c83b 1cbf 8ce4 51be e151 d9be 1262 b4be
00000050: 9363 3ebe 4111 84be 13d6 04bf edb2 f4be
00000060: 0ff8 3b3e 9836 41be edc8 44be 8c78 773c
00000070: 013d 86be 0f28 48be 6fd2 3abe 8170 b5bd
00000080: e8dc a0bd 86e4 27bf 7b06 11bf 8835 ab3d
00000090: 7428 b9be 2580 1fbf 66a3 bebe afbf debe
000000a0: e312 3dbf de1a ddbe e016 85be 3c8e fabd
000000b0: a487 e5be 3775 1bbe 1605 313e 2fbe 36be
000000c0: 52ad a7be a067 e6be 06de 25bd db79 31be
000000d0: aaaa 64be 54f9 17bf f5b9 1bbf 29a1 94be
000000e0: e8fd 83be 143c 113e 0a10 acbe aa78 a5be
000000f0: 7a67 24be c44a 66bd 70fc cbbe 1a61 0abf
00000100: 379a 02be 5715 edbe 93ee 6abe a235 8fbe
00000110: e556 88be 7d5f 91be 2ddf 8abe 8723 46be
00000120: 4a8a 89be 9740 1cbe 29f6 8dbe 0ff4 7fbe
00000130: ccdf 1d3e 14b1 04bf bcbc acbe d900 d6bd
00000140: 5850 c33e 8b92 43be 0075 c0be 7792 34be
00000150: 8f65 67be 8f3f b0be cd5a 30bf dc94 d8be
00000160: 9d9f c9be 4373 14bf b7cf 17be eb90 883d
00000170: 9d34 13be d3d0 2cbf 8732 e8be d5c5 b8be
00000180: 2de5 01bf c6b4 45be a672 57be 38bc 9dbe
00000190: 90bb 1c3f 3510 0abf f0f3 aabe d859 b9bc
000001a0: 925b bdbe 83e7 8fbe 843d 56be c98a ccbe
000001b0: 5705 79be c4c7 d2be 28ab 07be 448a 3ebe
000001c0: 1f4a 80be 3f88 9b3e 0fe1 6cbe 09c7 113d
000001d0: 815e e9be 83c9 b1be 2846 b03d 84ef 18bf
000001e0: 38f5 873d 1140 80be 80b5 2cbf 1163 99be
000001f0: 5f0b 5ebe 2488 71be d9dc 1fbe 08a0 10bf
00000200: d804 12be c42f b2be 2908 f8be cb7f 01bf
00000210: 5991 34be 073d 5fbe f6ca e9be 82a0 a6be
00000220: c865 cebe ca3f 02bf 0c95 0abf 8b90 44be
00000230: 6832 fdbd baa2 44be 65cd e4be eabf ebbd
00000240: d2a7 7bbc 18d5 bebe 0a53 8abe 9dc8 8ebe
00000250: bebe 35be 476d bbbe 8b3c 09bf 4be0 05bd
00000260: f8b2 e9be 572a 8bbe 51fc b0be 29a5 b2be
00000270: 3afe 16bf e6b6 c7be 3fcd 98be 2dc5 83be
00000280: 8ec9 1cbf deb7 d9be 7cce 11be 1913 9ebe
00000290: 4c9d bbbd 8d1d 06bf 4c7b 91be c3b9 e7be
000002a0: 85bb 99be 65aa 633d 10bf bdbe 9f0f 01bf
000002b0: d0c4 5abe 6f5b 9bbe 9fd3 ddbe a953 20bb
000002c0: 3980 0dbf cce8 febe 12b7 6abe 259f 9cbe
000002d0: e944 adbe 01a3 07bd d6c8 5ebe 2a14 b8bd
000002e0: 42e1 1abd 74cb 96be fd36 0dbf 880b c8be
000002f0: 0ac8 29bf 17b4 dabc cd8f 8bbe a6d9 e6be
00000300: f0bc d6be a46e 903e 5a72 0f3e 4888 fcbe
00000310: 0173 fdbe 03cc ddbe 314f 99be 5b03 8ebe
00000320: 58b1 cebe 340f 3dbf 58aa 64be 351e cabe
00000330: a80e a0be c0eb c8be 4b5a 94be 0999 f8be
00000340: 14ce cabe c5d7 cebe 5fbb 90be e9c6 40be
00000350: c0da 0fbe 53d4 4ebe cec4 01be 2b37 98be
00000360: 92dd 7bbe a0a6 98be 622b 6abe 2326 c3be
00000370: 63ca e7be a690 71be 3b58 b83d 4693 583e
00000380: a887 70be e988 39bd d5f3 06bf 3f51 813e
00000390: 4c79 70be 2e1b 7bbd d931 0cbe 93ed 14bf
000003a0: f752 9cbe 73fa dabe 89cd ddbe fab9 dbbc
000003b0: 0526 06bf 14ae 50be d80d b2be 33be c4bd
000003c0: de4f 063d e135 afbe 2b4b 4b3d 9db2 d2bd
000003d0: 6821 e3be 1f10 e8bd 293d 48be 6391 f3bd
000003e0: 47aa 0abe f903 57be 23ea 2ebe 1957 28be
000003f0: 1d79 9fbd 7911 1ebe f083 3fbe 37b6 b2be

bn1.running_mean f4 [400]
0.8288248 0.0016835899 -0.09078092 0.43307886 -0.16900316 0.43306547 -0.1825999 0.9659729
-0.6719273 -0.50986534 0.13638763 0.21744898 0.32518712 -0.030830096 0.847958 0.10297323
-0.6300835 0.034287363 -0.8385605 0.8841769 -0.39482874 0.24293838 -0.6450995 -0.41935784
0.50264585 0.032802947 0.6711852 0.25101927 -0.61897653 0.1807713 0.17460166 -0.0023303896
-0.27830657 0.3186839 -0.4790152 0.6646945 0.47031698 -0.09909074 -0.23823431 -0.14977773
-0.79772073 0.017709693 0.020191407 -0.522504 -0.6217866 0.050822023 -0.8299206 0.4953144
-0.18188481 -1.4904177 0.29780158 0.39263892 -0.69796103 -0.132448 0.035929244 -0.404643
-0.31148225 0.19780423 -0.15010414 -0.9323307 -0.2754013 -0.47195634 0.20030156 -0.37545934
0.44273815 -0.008191142 -0.49427977 0.10317558 -0.0029377514 0.30864975 0.09532117 0.45296064
-0.21501622 0.060339253 0.6201053 0.13843748 -0.05039181 -1.5916914 0.26760912 -0.12765934
1.1023531 -0.14836097 -0.40013742 0.13106282 0.0890975 0.22021587 -0.16053213 0.594999
-0.10809938 -0.60526043 -0.0413553 -0.21923293 0.4619634 -0.38341078 0.29942226 -0.23414318
-0.1071173 0.3878473 -0.2641496 -0.3896773 0.67116374 0.3508394 -0.517163 0.026358338
-0.44773838 -0.6976532 0.100018054 -0.24002437 -0.47711405 -1.2657163 -0.15028268 0.07167034
0.33364192 0.5144968 -0.09510132 0.5632509 0.8677139 -0.027048074 0.22948036 -0.66158116
1.7602468 -0.51450604 -0.067890175 -0.062028278 -0.62171125 0.04026975 -0.6724271 -0.20021695
1.1218227 -0.020434445 -0.4128556 -0.41753155 -0.75086755 0.50153154 -0.49352762 -0.073020644
-0.51926 0.39345098 -0.44253248 0.0017400661 -0.029407155 -0.034953706 -0.44091174 0.43523556
0.09225023 0.107878104 -0.09188891 0.16243488 -0.36414513 -0.1463512 0.35174868 -0.6720059
0.77342343 -0.91483027 0.42078882 -0.4558345 -0.17622463 0.38371685 0.115069255 0.7515595
-0.030094441 -1.2757182 -0.3212682 0.0038085587 -0.7669264 -0.17904443 0.55607486 -0.1892035
-0.48525217 0.26075634 0.21842901 -0.8326357 0.33622706 -1.0342042 -0.54034877 0.24575315
-0.16906144 0.04831885 0.0938806 -0.4123687 0.773674 0.96706533 0.054747682 0.25426194
-0.5786574 -0.8657774 -0.28775272 0.37137234 -0.440066 0.17719826 -0.12587781 -0.38509375
-0.5688755 0.86108476 -0.5702841 0.041176233 0.41058606 0.59521204 0.37082502 0.011249227
-0.016068107 0.30974844 -0.65442 -1.1251502 -0.13207695 -0.18923928 0.047216043 0.13554125
-0.5167583 0.4374378 -0.039390024 -0.2453137 0.3376799 -0.4048313 -0.69081366 -1.2974954
0.41687226 -1.1710178 0.36689982 0.37885565 -0.77844954 -0.30115485 0.5246196 0.22726563
-0.17982478 -0.17748724 -0.7576666 -0.59194386 0.58068585 0.38887843 -0.3872336 -0.8840509
-0.92767155 -0.32746914 -1.3654656 0.96381295 0.11742405 0.5643328 -0.10193209 0.07180029
0.55635995 -1.1623504 0.05590767 0.1629636 -1.1660705 0.8672251 0.562484 0.20413585
1.3379805 0.085215054 -0.4524342 -0.7754957 -0.16728051 0.82463753 0.07581861 -0.24231635
00000000: dd2d 543f e7ab dc3a 59eb b9bd 83bc dd3e
00000010: 2a0f 2dbe c2ba dd3e 78fb 3abe 004a 773f
00000020: 6d03 2cbf 8986 02bf 33a9 0b3e f2aa 5e3e
00000030: ed7e a63e 668f fcbc c713 593f a1e3 d23d
00000040: 274d 21bf e870 0c3d e7ab 56bf 6b59 623f
00000050: fe26 cabe d7c4 783e 3e25 25bf 12b6 d6be
00000060: 66ad 003f 625c 063d cbd2 2b3f 9985 803e
00000070: 3f75 1ebf 1d1c 393e c7ca 323e 73b9 18bb
00000080: 337e 8ebe 892a a33e 7b41 f5be 6b29 2a3f
00000090: 63cd f03e 16f0 cabd b2f3 73be 555f 19be
000000a0: 6d37 4cbf eb13 913c 7368 a53c d2c2 05bf
000000b0: 682d 1fbf c12a 503d ad75 54bf d999 fd3e
000000c0: 0340 3abe 02c6 bebf 7379 983e f807 c93e
000000d0: 93ad 32bf 73a0 07be 8b2a 133d 5e2d cfbe
000000e0: 9a7a 9fbe 318d 4a3e e6b4 19be 3aad 6ebf
000000f0: 6601 8dbe 43a4 f1be da1b 4d3e 353c c0be
00000100: 93ae e23e 2434 06bc 3d12 fdbe b84d d33d
00000110: 4a87 40bb 5707 9e3e bf37 c33d 75ea e73e
00000120: 362d 5cbe 4b26 773d 39bf 1e3f 8ec2 0d3e
00000130: a467 4ebd 8bbc cbbf 1004 893e 21b9 02be
00000140: e819 8d3f f0eb 17be d0de ccbe 5535 063e
00000150: c078 b63d 4580 613e 8962 24be db51 183f
00000160: 3563 ddbd 59f2 1abf 2d64 29bd 997e 60be
00000170: 7786 ec3e 6b4e c4be e04d 993e 3bc3 6fbe
00000180: 5160 dbbd ec93 c63e 9e3e 87be c883 c7be
00000190: 63d1 2b3f 39a1 b33e cb64 04bf 71ed d73c
000001a0: f73d e5be 6699 32bf 44d6 cc3d f3c8 75be
000001b0: 4b48 f4be fe02 a2bf b4e3 19be e6c7 923d
000001c0: 1dd3 aa3e 10b6 033f 7bc4 c2bd 3631 103f
000001d0: 8022 5e3f ec93 ddbc e6fc 6a3e 625d 29bf
000001e0: c44f e13f abb6 03bf 010a 8bbd 5d11 7ebd
000001f0: 7828 1fbf e5f1 243d 2f24 2cbf ac05 4dbe
00000200: e397 8f3f 2366 a7bc cf61 d3be b2c6 d5be
00000210: db38 40bf 5f64 003f a7af fcbe d98b 95bd
00000220: 39ee 04bf 6872 c93e 9e93 e2be ee12 e43a
00000230: 46e7 f0bc 9e2b 0fbd 2fbf e1be 32d7 de3e
00000240: b0ed bc3d 32ef dc3d 4130 bcbd 5455 263e
00000250: 3b71 babe 17dd 15be 6718 b43e 9408 2cbf
00000260: 14ff 453f 5132 6abf a271 d73e 2463 e9be
00000270: 3b74 34be 8976 c43e 6ea9 eb3d 3466 403f
00000280: 9e88 f6bc bc4a a3bf 447d a4be 0399 793b
00000290: 4a55 44bf 6c57 37be ec5a 0e3f 90be 41be
000002a0: f972 f8be db81 853e dbab 5f3e 9d27 55bf
000002b0: f425 ac3e ce60 84bf 4c54 0abf b7a6 7b3e
000002c0: 711e 2dbe fde9 453d 7944 c03d fe21 d3be
000002d0: 800f 463f 9891 773f 1b3f 603d 9f2e 823e
000002e0: e422 14bf 96a3 5dbf 5354 93be 8424 be3e
000002f0: 5550 e1be 7673 353e 1de6 00be 022b c5be
00000300: d3a1 11bf 0d70 5c3f 24fe 11bf 69a8 283d
00000310: 5638 d23e d15f 183f c7dc bd3e ae4e 383c
00000320: 43a1 83bc 5997 9e3e 1288 27bf ec04 90bf
00000330: 2e3f 07be f1c7 41be 9c65 413d 53cb 0a3e
00000340: 464a 04bf d9f7 df3e 6f57 21bd 8433 7bbe
00000350: 61e4 ac3e 0c46 cfbe 2ad9 30bf 5414 a6bf
00000360: 4870 d53e e9e3 95bf 4bda bb3e 5ef9 c13e
00000370: 7848 47bf f830 9abe 784d 063f 52b8 683e
00000380: fd23 38be 37bf 35be 70f6 41bf a289 17bf
00000390: d4a7 143f 131b c73e 7b43 c6be 2951 62bf
000003a0: e27b 6dbf 09aa a7be 94c7 aebf 72bc 763f
000003b0: 057c f03d 1d78 103f c6c1 d0bd 080c 933d
000003c0: 9b6d 0e3f e6c7 94bf 71ff 643d eedf 263e
000003d0: cc41 95bf 7702 5e3f f4fe 0f3f fd08 513e
000003e0: f242 ab3f 3b85 ae3d 75a5 e7be e386 46bf
000003f0: 954b 2bbe 721b 533f ca46 9b3d c721 78be
