p2_continuous-control/checkpoint_critic.pth (torch_old, 554720 bytes, 13 tensors)

fcs1.weight f4 [400, 33]
000000 84 8b 5e bf 20 52 f2 be 6e b9 fc be e4 7b b4 bf
       -0.86931634 -0.4732828 -0.49360222 -1.4100308
000010 79 a8 b0 3e 8b a8 bb 40 8b 4a 7f 40 57 ac a4 bf
       0.34503534 5.864324 3.9889247 -1.2865094
000020 5b e5 69 bf 9a b1 58 be 91 28 43 bf 0c 8a 10 3e
       -0.91365594 -0.211615 -0.76233774 0.1411516
000030 01 27 34 bd e8 cf 6c 3f b1 db 34 bf 8b c7 74 3e
       -0.04398251 0.9250474 -0.7064772 0.23904245
000040 6c ef eb 3f 9b 89 32 c0 c2 d9 67 bf df ce 72 40
       1.8432441 -2.7896488 -0.9056665 3.7938764
000050 87 00 43 3e 1b bd 47 3e 83 01 f9 3e d3 cc 75 bf
       0.1904317 0.19505732 0.48633966 -0.9601566
000060 c7 46 7f be f6 38 fb bd ba b6 6b bf 1c 14 de 3b
       -0.24929343 -0.12266724 -0.92075694 0.0067772996
000070 d3 8f 5d bf f4 48 6f bc 9e 7d bb bc 5f d1 00 3d
       -0.86547583 -0.014604796 -0.022887047 0.03144967
000080 51 63 78 bf c4 ed cf 3e 99 a2 3a 3f f0 43 89 bf
       -0.97026545 0.40611088 0.72904354 -1.0723858
000090 20 fe 5a c0 db 0d 90 3d 03 fa bb 3f a6 31 96 40
       -3.4217606 0.07033893 1.4685673 4.6935606
0000a0 47 57 ba bf 53 ff 86 bf c2 10 69 3e ed e0 f4 3e
       -1.4557885 -1.0546669 0.22760299 0.47827855
0000b0 f1 d9 25 3f 09 1a e1 3b 8f 94 84 3f 4d 12 c5 be
       0.6478568 0.0068695587 1.0357836 -0.38490525
0000c0 66 46 31 3f f9 8b 4f c0 be 49 43 be fd 55 9a 40
       0.69248044 -3.2429183 -0.19071099 4.8229966
0000d0 a2 c7 7f be 88 77 1d 3f b8 a4 cf be a2 b9 cd bd
       -0.24978498 0.61510515 -0.40555358 -0.10045172
0000e0 10 9d 38 3f cb f9 12 bf dc 5a 36 bd 2a c6 36 bf
       0.7211466 -0.57412404 -0.044520244 -0.71396124
0000f0 21 91 6b 3c b6 90 e0 3e c0 e5 6e bc 75 d1 15 bd
       0.014377863 0.43860406 -0.014581144 -0.036576707
000100 00 d4 be 38 e3 62 82 c0 fe 37 77 bf 8b 9d 6f 3f
       9.099394e-05 -4.074571 -0.9656981 0.93599766
000110 64 82 f1 3d 84 18 fb 3e 7d 32 75 3f 43 8f b0 bf
       0.11792448 0.4904214 0.95780164 -1.379372
000120 5e 0c 47 3d c1 e6 d0 bd 6c 15 44 3e 33 83 26 bf
       0.04859578 -0.10200263 0.19148797 -0.65043944
000130 32 5c 89 be f1 f4 4a bf 8c 8d fb be e9 f6 54 3f
       -0.26828152 -0.7928 -0.4913143 0.83189255
000140 17 d2 4a bf 00 f9 9f bf a5 65 dc bf f9 ab d7 c0
       -0.7922682 -1.2497864 -1.721852 -6.7397428
000150 f9 a7 8c 3f 1f 2b b1 bf 0e e1 35 bf 26 5f c9 be
       1.0988761 -1.3841285 -0.7104653 -0.39330405
000160 1a dd d6 3d ce ff 8d 3e 0b 83 74 bd 46 31 d6 be
       0.104913905 0.27734226 -0.059695285 -0.41834468
000170 f3 dd 35 bf 05 b5 e5 bc ea fd 84 3f 22 6f 2b bd
       -0.7104179 -0.028040418 1.0389988 -0.04185403
000180 8b 57 f9 3c 41 c4 18 3d ce 5f d1 3f 34 b7 4f be
       0.030437252 0.037296537 1.6357362 -0.2028473
000190 e9 10 88 bf 92 d9 5e bf 33 1d fe be c2 97 b5 bf
       -1.063016 -0.87050736 -0.49631652 -1.4186938
0001a0 c3 c9 1d 40 dd 38 61 be a9 52 59 bf 74 31 77 3f
       2.4654396 -0.21994348 -0.84891754 0.96559834
0001b0 73 b4 c5 3e 9b 39 9c 3d 84 0c cd bc b3 47 49 be
       0.38614234 0.07628175 -0.025030382 -0.19656257
0001c0 55 c7 1d 3e 9f e6 20 3f db 55 3b be 63 83 cb 3f
       0.1540807 0.628519 -0.1829447 1.5899471
0001d0 80 d0 e2 bf 44 09 9b 3f 1b df 12 3e bb b2 e8 3e
       -1.7719879 1.2112203 0.1434292 0.4544886
0001e0 11 12 e3 be c7 64 a7 3e c8 b5 32 3f 81 56 90 3e
       -0.4434972 0.32694075 0.69808626 0.28190997
0001f0 44 d2 8b 3f 03 ed 0a bf 05 5b 14 3d 80 6f 75 bf
       1.0923543 -0.542679 0.036219615 -0.9587326
000200 40 13 7d ba 01 5d fa bc d8 7b e9 bb b7 55 fa 3f
       -0.00096540526 -0.030561926 -0.007125359 1.9557408
000210 0d 0f 37 bf 7b 11 d6 3f 47 7f 88 3f 1b 54 71 bf
       -0.7150734 1.6724085 1.0663842 -0.9426896
000220 1c 02 1e 3f c4 f1 7c c0 02 5f 98 3f f1 77 03 3e
       0.6172197 -3.9522562 1.1903994 0.12838723
000230 6c 1d ce 3e 8a 8a 13 bf 0e 76 8c bf 14 9c 7b be
       0.40256822 -0.5763327 -1.0973527 -0.24571258
000240 9c f1 b6 3f da f4 15 bf 35 77 82 bd 7b 69 83 bf
       1.4292483 -0.5857674 -0.06370393 -1.0266565
000250 e9 25 1c bf 5e 12 4a 3f 8c ac 0f c0 f0 54 06 bf
       -0.60995346 0.78934276 -2.2449064 -0.52473354
000260 45 59 bb 3e 87 dc 83 3f cf 33 ae bf ea 34 6c be
       0.36591545 1.0301675 -1.3609561 -0.2306706
000270 d0 4c 3d bf bb 1a 2d bf cb 2f f4 3f 84 7e f5 3b
       -0.7394533 -0.6761891 1.9077085 0.0074918885
000280 a9 09 68 bf eb 49 0f bd 38 29 3e 3c 80 0a 39 bb
       -0.9063974 -0.034982603 0.011606507 -0.0028235018
000290 d8 ac 27 c0 e3 fb 42 3e 9f 5d d6 3e eb 4a 1a bf
       -2.6199245 0.190414 0.41868302 -0.60270566
0002a0 ef 83 17 3d 47 eb 89 bf 69 80 6c 40 dd 3a 09 bf
       0.036991056 -1.0774926 3.6953375 -0.53605443
0002b0 9d dd 92 3e 87 e2 90 3e b4 74 a8 bd 31 9c 8d be
       0.28684703 0.28297827 -0.08225384 -0.27658227
0002c0 90 91 87 bf 26 cd b4 bd b3 de 7a 3e 83 f9 19 3f
       -1.0591297 -0.088281915 0.24499016 0.6014635
0002d0 ad ec a6 bf 8f 42 4d bf 58 2d 8e 40 7c e9 db bf
       -1.3040978 -0.80179685 4.443035 -1.7180629
0002e0 4b 7f 35 40 e1 0f 24 bd fe 0e ee 3d 80 63 1d bf
       2.8358943 -0.040054206 0.11623953 -0.6147995
0002f0 f3 a5 48 be 0f 0d 46 3f 52 bd 01 3f 2e 2e d0 be
       -0.19594555 0.77363676 0.50679505 -0.40660232
000300 92 2e 25 3d 7d 39 e7 3f 34 e9 55 3c 3c a6 d3 3b
       0.040327616 1.8064419 0.013056088 0.0064590257
000310 b0 e2 fc bc 93 8b 8f 3c 33 0c f1 bf 2a 6d 75 3f
       -0.030869812 0.017522609 -1.8831848 0.95869696
000320 59 be 71 be 3e 14 6a 3f f0 f5 17 40 ed 38 a8 3f
       -0.23607768 0.9143714 2.3743858 1.3142372
000330 f6 4f 21 c0 dc 9c b5 bc ec 87 91 bc fe 7f e2 3e
       -2.5205054 -0.022169523 -0.017765008 0.44238275
000340 35 9b 79 3d d4 0a 8a 3d 8a 2e 7a 3e 1b 2b cf 3f
       0.060939033 0.067403466 0.24431816 1.618503
000350 db f3 af bd 15 cc 07 3e eb 8a f9 be 01 3d ba be
       -0.085914336 0.13261445 -0.48738798 -0.36374667
000360 0e bd 98 3f ee 91 85 3f ad 05 3e 3e 35 34 9d 3e
       1.1932695 1.0435159 0.18556853 0.30703893
000370 24 fc 4b 3f de ab 97 3f 75 f0 f6 bd c8 b9 bb 3e
       0.7968161 1.1849325 -0.12057582 0.36665177
000380 f0 fc 3d bf 9f 21 13 bd ec 01 7a 3f b4 d0 7c bc
       -0.74214077 -0.035920735 0.9765918 -0.015430618
000390 a8 9d 89 bc 6c 7b 7b bc 26 05 b8 c0 4e be f8 be
       -0.01679881 -0.01534925 -5.7506285 -0.4858269
0003a0 4e 3f 3b 3f fc 53 26 40 07 19 de bf 9c 0c 81 c0
       0.7314347 2.598876 -1.7351388 -4.032789
0003b0 6b f5 f1 bf c1 8c 08 40 bc 68 99 bf 70 a1 73 3f
       -1.8903021 2.133591 -1.1985087 0.9516821
0003c0 fe 1d 19 bf 9d c0 d6 be f6 2f 12 bf f7 83 88 3f
       -0.5981139 -0.41943827 -0.5710443 1.0665272
0003d0 1d 3b 9e bd a7 75 d0 be 73 99 dd be 35 32 64 c0
       -0.07726119 -0.40714762 -0.43281135 -3.5655644
0003e0 ff 46 95 3e 29 5b fe 3f 4c 61 84 40 47 aa 3c 3e
       0.29155728 1.987157 4.136877 0.1842433
0003f0 14 1e 2f bf 86 74 4d 3e 36 97 6d be c5 68 37 3d
       -0.6840527 0.20063981 -0.23202214 0.04477765

fcs1.bias f4 [400]
000000 a9 e5 05 3e 84 39 60 bd 8c fb 2a be d9 1d 0b 3a
       0.1307589 -0.05474235 -0.1669752 0.0005306877
000010 cb fb 10 be 93 2f c4 3d 02 7f 2f 3d 25 04 fc 3d
       -0.14158551 0.095793866 0.042845733 0.12305478
000020 3d 23 85 bc 6c 0d 01 be c9 ae 0f 3e 54 0a 02 be
       -0.016252154 -0.12602776 0.14031519 -0.12699252
000030 d6 57 df 3d 71 2d c5 3c 07 a5 74 3d 51 e2 07 be
       0.10905425 0.02406952 0.059727695 -0.13269927
000040 2f b0 12 be 0a 63 ac bd 88 9a ec bd b1 18 19 be
       -0.14325021 -0.08417328 -0.11552912 -0.14950825
000050 79 32 42 bd 1c 44 29 3e f7 dc 05 3e e7 6c 20 3e
       -0.047411416 0.16529888 0.13072573 0.15666543
000060 84 be 3a 3d e3 81 05 be 92 b3 e3 3d bd 4e 2e 3e
       0.045591846 -0.13037829 0.11118235 0.17022224
000070 f8 11 df bd 61 1b f3 ba a1 8b 1e 3d c5 52 ca 3d
       -0.10892099 -0.0018547588 0.03870738 0.09879068
000080 9d dc 34 3c 30 cd 30 be 09 32 a9 bc 7b 47 f3 bd
       0.011038926 -0.17265773 -0.020653741 -0.11878868
000090 6d d1 c2 3d a1 39 fc 3d dc 72 80 3c 16 62 16 be
       0.09512601 0.12315679 0.01567977 -0.14685854
0000a0 14 d0 6b bd e0 11 7c bd 85 aa a4 3d c1 54 da 3d
       -0.057571486 -0.061540484 0.080403365 0.10660697
0000b0 2e ae e5 3d d8 af 66 bd 68 45 8e 3d f9 da 33 bd
       0.11214863 -0.05632004 0.06946832 -0.04391
0000c0 52 41 72 3c 7a ae 14 3b 02 94 0e be 2d 8b 2e 3d
       0.014786081 0.0022687004 -0.13923648 0.042613197
0000d0 5f a2 9c 3b 24 aa b9 bc c3 3f 2f be 17 e0 f4 bd
       0.0047800983 -0.022664137 -0.17114167 -0.11956804
0000e0 ff 1e 1c 3e d4 20 2d be d6 c0 99 bd 29 b0 a1 bd
       0.15246199 -0.16907054 -0.07507484 -0.07894928
0000f0 f4 85 dc 3d 87 f4 10 bd aa 9f 10 be 0d a6 07 3e
       0.10767737 -0.03538945 -0.14123407 0.13246937
000100 36 97 1e 3e 91 53 dc 3c dd 46 10 be 9c 08 c5 3d
       0.1548737 0.026895316 -0.14089532 0.09620783
000110 57 6d 9c 3d 3b 0b ce 3c a0 78 8e bc 2a db 09 3d
       0.076380424 0.02515184 -0.017391503 0.033656277
000120 1d 71 08 be ad 17 04 3e 8d 6d ab bb af 31 24 be
       -0.133244 0.12899657 -0.0052315653 -0.16034578
000130 e6 42 11 3e f8 d0 87 bd ba a9 5d 3c e0 f0 a1 3d
       0.14185676 -0.066316545 0.0135292355 0.079072714
000140 85 fc 1e 3d ac a7 0c 3e 62 ae 23 be 4a 17 47 3d
       0.03881504 0.13735837 -0.1598449 0.048606195
000150 fd 4f 2b b9 e1 f3 1b bc 5c 53 d4 bd 6f e3 e8 bd
       -0.00016337629 -0.0095185945 -0.10367462 -0.113715045
000160 55 5d 7d 3d 01 09 53 3c bd 52 c4 3b ec d0 ce 3d
       0.061856586 0.012880565 0.0059913085 0.100984424
000170 67 77 ce 3c 18 e2 49 3c ad c2 e6 3d 73 c7 47 ba
       0.02520342 0.012321971 0.112676 -0.0007620968
000180 74 79 26 3e f9 b8 12 be 4c 8f a2 3d 0d 82 36 3d
       0.16257268 -0.14328374 0.07937488 0.04455762
000190 ee 0d 91 3c 62 af 56 bd 50 20 0a bd 1d ff 57 3d
       0.017706838 -0.05241335 -0.03372222 0.05273353
0001a0 08 a3 70 3c 03 d3 0f be 30 0b 1d be f9 f9 ae bd
       0.014687307 -0.14045338 -0.15336299 -0.08543772
0001b0 64 61 2e be a9 9d 71 bd fe fb 38 3d 8a a0 cf bd
       -0.17029339 -0.058988247 0.045162193 -0.10138042
0001c0 04 e6 e8 3c 4d 15 28 3e 47 3d ab bd 26 20 24 3e
       0.028429992 0.16414376 -0.08361297 0.16027889
0001d0 ec 76 0f bc 37 cf 2d be 6b 3c 3d bd d0 45 fb 3c
       -0.0087563805 -0.16973577 -0.046200197 0.030672938
0001e0 db b6 0c 3e 65 24 68 bd 9d 6f f9 bd 9a 8a 1b 3e
       0.13741629 -0.056675334 -0.12179492 0.15189591
0001f0 46 c2 f8 3c d1 da 48 bd 67 55 a2 bd 08 03 95 3d
       0.030366074 -0.049036805 -0.079264455 0.07275969
000200 6a 63 15 3e b4 44 35 bc 8f 5a 06 3d 24 03 24 3d
       0.14588705 -0.011063743 0.032801207 0.040042058
000210 dd 18 c9 bc d3 a3 b3 3d a0 38 29 3e 4c c7 a9 3d
       -0.024547989 0.08771481 0.16525507 0.08289966
000220 96 d4 10 3e af 64 57 3d d0 65 06 bd ba 22 50 3d
       0.14143595 0.052586254 -0.03281194 0.050814368
000230 67 bd ca bd e3 6b 68 bd a8 15 02 3d c4 7d 64 3d
       -0.09899407 -0.056743514 0.031758934 0.055784002
000240 68 54 0c be 3b de 31 3d 69 2f ca 3d 2a 48 0e be
       -0.13704073 0.043424826 0.09872324 -0.13894716
000250 f9 4c 85 3d ad 33 49 bd 5a 0f ea 3d 9b 15 2c 3e
       0.06508822 -0.049121547 0.11428709 0.16805117
000260 b8 c2 b2 3d 36 ec 0b be 31 56 76 3d 8a d2 af bd
       0.08728546 -0.13664326 0.060140792 -0.08585079
000270 08 9f 00 3e e4 a9 70 3d 25 c3 9b 3d 85 c2 04 be
       0.12560666 0.05875577 0.0760558 -0.12964828
000280 35 81 2e be 21 be e0 bd 57 93 24 3e 24 09 a9 3d
       -0.17041476 -0.10973764 0.1607183 0.082536966
000290 aa dd 38 3d 5d 56 0e be e2 e8 52 bd ac 42 fe 3b
       0.04513327 -0.13900132 -0.051491626 0.0077594128
0002a0 71 17 e4 bc 57 5d 23 3e 44 22 2c be 9c 4a 00 bd
       -0.027843209 0.15953575 -0.16809946 -0.031321153
0002b0 a3 74 f0 3d d7 06 e5 3d 38 d8 07 be d9 32 a5 3d
       0.11740997 0.11182945 -0.13266075 0.08066339
0002c0 e7 dd 7b bc 53 6b e4 bd 76 a0 74 bc 55 6b 06 be
       -0.01537273 -0.11153283 -0.014930835 -0.13126881
0002d0 38 c5 54 bd f7 00 32 3e 49 92 15 be 50 f8 0f be
       -0.051945895 0.1738318 -0.14606585 -0.14059567
0002e0 b7 29 cc 3d c7 bd d3 3d 26 7e e4 bd 06 ee 3b bd
       0.09968894 0.103389315 -0.111568734 -0.045881294
0002f0 b4 1a 15 ba 98 04 12 be 63 49 3a 3c 02 b7 60 bd
       -0.0005687878 -0.14259565 0.011370036 -0.05486203
000300 31 15 5f bd 73 5b 78 3d 2c ac b1 bd 94 3a 78 3c
       -0.05446357 0.060634088 -0.08675417 0.015150685
000310 3d d6 20 3e b4 6b 06 3e 22 64 ef 3d 93 8a 16 3e
       0.15706725 0.13127023 0.11689021 0.147013
000320 81 45 85 bd 0d 6f 20 3e 3b b6 25 be 42 64 29 3e
       -0.065073974 0.15667363 -0.16182797 0.16542152
000330 7c 07 31 3e ea fe b7 3d fd dd 17 3c 0f a8 3a 3d
       0.17288011 0.08984168 0.009269235 0.04557043
000340 4b 12 b2 bd ed 86 d6 bd c9 ac ea bd 6d d8 cb 3d
       -0.08694895 -0.10474954 -0.114587374 0.09953389
000350 ee 44 0d be 5c 08 7b 3c 69 50 74 3d cf f8 04 be
       -0.13795826 0.015321817 0.059646998 -0.12985538
000360 2f 14 fc bd 70 43 01 3b 5a 21 16 be 99 f4 b7 3c
       -0.12308537 0.0019724034 -0.1466116 0.0224555
000370 b4 71 f9 bd 85 a8 ea bd 60 df 9f bd cd 2c 27 3d
       -0.1217989 -0.11457924 -0.07806277 0.04081421
000380 ad bb 4e bd 5d ba 20 be be 2c 9e bd 2a 5d 5a bd
       -0.05047195 -0.15696092 -0.07723378 -0.053311504
000390 92 06 0d 3e 2c 34 06 3e cb f8 54 3c df 22 8c 3d
       0.13772038 0.1310584 0.01299877 0.06842589
0003a0 21 5d 30 be 00 b3 5a bc d3 19 b3 3d 7b 4f 82 3d
       -0.17223026 -0.013348341 0.0874516 0.06362816
0003b0 97 85 a7 bd a2 c9 ec 3d 7a 65 82 3d 3d bb da bd
       -0.08179777 0.11561896 0.06367011 -0.10680244
0003c0 81 2c 37 3d 6c c4 0c be 74 f5 e0 3d 0a 39 f2 3d
       0.044720177 -0.13746804 0.109843165 0.118272856
0003d0 9f 21 3c bb 47 78 89 3d 64 cc c6 bd 0b 14 b0 bd
       -0.0028706563 0.06712394 -0.09706953 -0.08597573
0003e0 84 35 07 bd ec 2b f5 bd d9 8a f2 bc fb cb 6a ba
       -0.03301002 -0.11971268 -0.029607223 -0.0008956787
0003f0 97 8c 9e bd c8 b8 e1 3d 84 bf 68 3d 2c 8b c2 3d
       -0.07741659 0.11021572 0.05682327 0.09499201

fc2.weight f4 [300, 404]
000000 b1 3f 1f 3c 3a 07 78 bd 8f e5 52 bb d3 e3 9b bd
       0.009719775 -0.060553767 -0.0032180285 -0.076118134
000010 09 60 26 3d 80 4c fd 3c 14 31 61 bd 62 49 86 bc
       0.04061893 0.030920267 -0.054978445 -0.016392414
000020 2f ed 2a 3d 61 62 80 bd f9 04 59 3d 13 0f 2c bc
       0.041730102 -0.06268764 0.052983258 -0.010501641
000030 28 e6 93 bd fa 27 d4 3c 6b 57 74 3b 50 33 86 bd
       -0.07221633 0.025897969 0.003728355 -0.06552756
000040 f6 dd cc bd e6 dc 7a 3c 5a 5c 6b bd 39 93 83 bd
       -0.10003273 0.015311455 -0.05746112 -0.06424565
000050 18 9b 4e bc 94 ed 27 bd 1d 4c ef bc 96 aa a4 3c
       -0.012610219 -0.040998057 -0.029211098 0.020100873
000060 2a c8 08 bc 6b 98 70 b9 86 dd 1a 3d 67 f2 0c bd
       -0.008348504 -0.00022944964 0.037808917 -0.03441086
000070 5c de 99 bd 2a 6d 37 bd 43 91 69 bc bb a8 fe bd
       -0.07513115 -0.04478184 -0.0142558245 -0.124345265
000080 0f e2 80 bd 65 da 05 bd b8 15 5a bd c5 01 29 bd
       -0.06293117 -0.03267898 -0.05324337 -0.041261453
000090 4c 70 b0 3c 15 cd 67 bd 16 67 32 3c 8b 9c ae bb
       0.021537922 -0.056592066 0.010888835 -0.00532872
0000a0 3d ce 04 bc 82 32 83 bd e4 e6 2b bd 10 9d ba bd
       -0.008105812 -0.06406118 -0.04196824 -0.091119885
0000b0 9e 4d b8 3b 14 a0 69 bd 65 e9 1e bd 4c 06 49 bc
       0.005624487 -0.057037428 -0.0387968 -0.012269568
0000c0 45 6d 2d bd fb b0 7a bd 93 5c df bb 74 c4 92 bd
       -0.042340536 -0.061203938 -0.0068164556 -0.07166377
0000d0 fa 8c bf bd da bc 84 bd ac 1b 2d 3d 90 58 94 bd
       -0.09353061 -0.06481333 0.042262718 -0.072434545
0000e0 4f 28 62 ba 72 e6 85 bd 07 4c c6 bd 94 1e ea 3c
       -0.0008627222 -0.065380946 -0.0968247 0.028579034
0000f0 49 3d 3c bd 6e ae f2 bc c7 1b 8e 38 b2 f4 b3 bd
       -0.045956884 -0.02962419 6.7762616e-05 -0.08786906
000100 41 38 91 3c 24 cd df bc f2 62 9b bc bb 4e 98 bc
       0.01772702 -0.027319498 -0.01896808 -0.01859223
000110 4f c4 9f bd 29 c6 e1 bb cf ec d6 bc 5d e9 b1 bd
       -0.07801115 -0.0068900776 -0.026235966 -0.08687089
000120 a7 29 36 3b 80 36 4b bd e8 3b 87 bd 40 f2 ec bd
       0.0027795823 -0.049612522 -0.06603223 -0.11569643
000130 80 e0 fd 3c b4 57 fc 3c 09 37 97 3b ee 40 de bc
       0.030990839 0.030803539 0.004614715 -0.02713057
000140 c5 48 df 3b 11 39 9c 3c 2c db 61 bd 74 ef 88 bd
       0.0068140947 0.01907018 -0.05514066 -0.06686297
000150 c7 dd 9b bd df e3 04 be f6 d3 4f bd 16 0d 35 bd
       -0.0761066 -0.12977551 -0.05073925 -0.044201933
000160 ca 08 8b 3c 27 52 1a 3d 37 52 96 bd 59 70 7c bb
       0.016971964 0.037676003 -0.073399 -0.0038519113
000170 3e ca 85 bd 8c 96 5b bd f0 fd ed bc c9 15 ce 3c
       -0.06532715 -0.05361037 -0.02905175 0.025156872
000180 73 09 8b bd cd 5c 8e bd 73 12 a7 bd bf 78 75 bd
       -0.06788912 -0.06951294 -0.08157816 -0.059929606
000190 55 da 22 bc b1 50 97 b9 ec 4b 70 bd f6 2e 50 3d
       -0.00993975 -0.00028861084 -0.058666155 0.050826035
0001a0 63 aa 53 3c 1f 85 2f bd 8c b3 15 bc c0 46 15 bd
       0.012919041 -0.042851564 -0.009137046 -0.036444426
0001b0 0e 1f ac bd cc f9 29 3c 14 5a c8 3b c3 a5 03 3d
       -0.08404361 0.010374498 0.006114254 0.032140505
0001c0 28 49 9d bc c4 6e bd 3a 43 f5 88 bd 57 2b 86 bd
       -0.019199923 0.0014452566 -0.06687405 -0.06551235
0001d0 2e 6a 74 bd e0 ac 44 bd 09 b9 48 3d a5 21 26 bd
       -0.059671573 -0.04801643 0.04900459 -0.04055943
0001e0 0b 54 86 bd cd e1 20 bd ea d1 ac bd a1 9a 1b bd
       -0.06558999 -0.03927784 -0.084384754 -0.037989262
0001f0 74 d0 36 bb 8e 58 4f 3d 8e e5 4c bd a2 c1 fa 3b
       -0.0027895244 0.05062156 -0.050023608 0.0076524774
000200 e4 96 ce 3c 32 f5 5a bd e5 56 b4 bd 71 b9 83 bd
       0.025218435 -0.053456493 -0.08805636 -0.064318545
000210 c4 21 17 3d 6c aa 51 bd ff 1f 5d bd 02 26 39 3d
       0.036897436 -0.051187918 -0.053985592 0.045202263
000220 01 c9 52 bd 6c 55 f1 bc de 64 52 bd e2 8f 0a bd
       -0.051461224 -0.029459678 -0.051365726 -0.033828624
000230 0e 5b 26 bd 1e 53 a8 bd 6c 04 81 bd a5 86 51 bd
       -0.04061418 -0.08218978 -0.062996715 -0.051153798
000240 08 ab 16 bd 8a 7b 5b bd 64 b8 74 bc b9 6f 5f 3c
       -0.0367842 -0.053584613 -0.01493654 0.013637477
000250 d1 3a d1 3c d9 13 7d 3d 92 aa f3 bd df 2a e6 3c
       0.025540741 0.061786506 -0.11897768 0.028096614
000260 e7 4a 6f bd b1 10 95 bd 6f c1 63 bd e2 78 30 bc
       -0.05842104 -0.07278574 -0.055604395 -0.010771008
000270 67 79 d2 3c d4 b1 34 bd 5e 64 3d 3d 27 ac 12 3d
       0.025692655 -0.044114903 0.046238296 0.03580871
000280 50 1c eb bc 59 7b 59 3d 16 c4 11 3d 89 0c b3 bc
       -0.028700024 0.05309615 0.035587393 -0.021856563
000290 26 fe 20 bd c5 4f 16 bd 1b 67 77 bd 00 b4 91 bd
       -0.039304875 -0.036697168 -0.060401063 -0.071144104
0002a0 c4 aa a4 3c 61 85 c0 3b 88 f3 fe bb 2a c1 3e 3c
       0.020100959 0.005875275 -0.007780496 0.011642734
0002b0 a0 8a 9f bd c1 b4 85 bb 6c 90 ca 3b ab 22 9b bb
       -0.077901125 -0.0040803854 0.006181767 -0.0047343574
0002c0 52 85 56 bd 78 bd 95 3c 5a 4c 9f bd 6d 39 8f bd
       -0.052373238 0.018278822 -0.07778235 -0.06993375
0002d0 bc 72 da bc 96 84 84 bd b1 ad 3d bd 65 d6 a8 bd
       -0.026666038 -0.06470601 -0.046308223 -0.082440175
0002e0 a4 b3 9a bd 70 5e 72 bd 2a 04 d9 bb a9 ec 50 bd
       -0.07553795 -0.059172094 -0.006622811 -0.051006947
0002f0 67 03 de bd a7 75 5b bc 9f 98 e1 bc 6c da 1f bd
       -0.10840493 -0.01339475 -0.027538596 -0.039026663
000300 9a 69 89 bc e6 b4 a8 bd b0 95 6f bd 0c a5 8f bc
       -0.016773988 -0.08237629 -0.058492362 -0.017534755
000310 41 ac 04 3d 86 bb 15 3d 1c 6b 2e bd 30 85 61 3d
       0.032390837 0.03655579 -0.042582616 0.055058658
000320 bc e4 11 3d 58 9e 4d bd fd 71 12 bd 17 90 c4 bd
       0.03561853 -0.050199836 -0.03575324 -0.095977955
000330 38 43 9f bb e2 d4 a1 3c bd 19 29 bd 2e 9a 41 bd
       -0.004860308 0.01975483 -0.04128431 -0.047266178
000340 f4 9f cd 3c 32 70 e3 bd 39 e6 ce bc 93 6e c2 bc
       0.025100686 -0.11105384 -0.025256263 -0.023734367
000350 3a 91 ec bc 1b 40 92 3c 88 06 5a bd a2 db 88 bd
       -0.028877843 0.017852833 -0.053228885 -0.06682517
000360 e1 b7 e5 bd 8e 8d 26 bd 5f 4e 3c 3c 48 7d e4 3c
       -0.11216713 -0.04066234 0.0114932945 0.02789177
000370 9e c8 d7 bc 6d 1f 87 bd 15 9f 36 bd 54 b6 fa bd
       -0.026340779 -0.06597791 -0.044585306 -0.122418076
000380 1e 2b 98 bd b6 60 e5 3c 10 91 81 bd 67 c3 18 bd
       -0.07430099 0.028000217 -0.063264966 -0.037295725
000390 58 eb 42 bd 9b 36 b2 bd 97 7a 9d bc 31 ad 3b bd
       -0.047587723 -0.087018214 -0.019223494 -0.045819465
0003a0 3e 54 ff 3c 54 cd b2 3a 00 bd a0 bd 24 08 6b bd
       0.0311681 0.0013641515 -0.07848549 -0.05738081
0003b0 eb 1d 99 bd 74 76 38 3d e6 ac cf bd 0a 71 75 bd
       -0.074764095 0.04503484 -0.101404 -0.059922256
0003c0 70 50 83 bc fe db d1 bd 23 34 f8 bc 0b 72 6e bd
       -0.016029567 -0.10247038 -0.030298298 -0.05821423
0003d0 07 90 91 bd a4 71 a9 3c 2a f8 71 bc 65 c5 44 bd
       -0.07107549 0.02068407 -0.01476864 -0.048039813
0003e0 f5 f8 09 bc 28 14 12 bd f1 03 bf bc b4 42 d9 3c
       -0.008421172 -0.035663754 -0.02331731 0.026521064
0003f0 29 ac 32 3c 9d ef 95 bd 84 1d 68 3c 69 d3 42 3b
       0.010905304 -0.07321093 0.014167193 0.002972806

fc2.bias f4 [300]
000000 b4 ce 8a bd 00 c3 ac bd 27 24 c4 bd 1c 0a e4 bd
       -0.06777707 -0.08435631 -0.09577208 -0.11134741
000010 77 a2 dc bd cf d8 b7 bd 32 80 dc bd 43 5e 1b bd
       -0.10773175 -0.089769 -0.10766639 -0.03793169
000020 56 4e 3a bd 74 e2 64 be 5f 11 d9 bd f9 24 6f bd
       -0.045484863 -0.2235201 -0.105990164 -0.05838487
000030 91 4a 02 be 74 3c 56 bf 4c b8 ae bd 10 ee a8 bd
       -0.12723757 -0.83685994 -0.085312456 -0.08248532
000040 d9 c1 8f bd ce bb 16 be d0 de 79 3f 4f 80 a8 bd
       -0.070193954 -0.1472008 0.9760561 -0.08227598
000050 c3 e8 f5 bd f0 12 32 3f c4 d1 f7 3e c9 76 ee 3f
       -0.120072864 0.69560146 0.48402226 1.863
000060 3f 8b d7 3f ce ae 5a 3f 90 14 40 bf f4 04 b0 bd
       1.683937 0.8542298 -0.75031376 -0.08594695
000070 20 f9 d2 bd ac 55 21 bf ad 6c bc bd da 15 33 3f
       -0.10301423 -0.6302135 -0.09200416 0.6995522
000080 3c 2a 1c be 22 b5 22 bd 79 04 83 bd 25 54 8c 3f
       -0.15250486 -0.039723523 -0.063973375 1.0963179
000090 f5 9b d1 bd 4d 2b d3 bd 6f c8 0f be 2f 43 c3 bd
       -0.102348246 -0.10310993 -0.14041303 -0.09534299
0000a0 6e 18 30 bd 9e 0d b3 bd 39 07 c9 bd 6e d0 49 3f
       -0.042992048 -0.08742832 -0.09815831 0.78833663
0000b0 16 fe 70 bd 76 e2 ca bd 16 06 4d 3a 47 8a f4 bd
       -0.058836065 -0.09906475 0.0007821036 -0.11940437
0000c0 66 bb c8 bd 99 05 6f 3f de 4f e1 bd cd 0f fc 3e
       -0.098013684 0.93367916 -0.110015616 0.49230805
0000d0 86 7f 38 bd 5b fc 88 bd de 29 e4 bd 70 b1 39 bd
       -0.04504349 -0.06688758 -0.11140798 -0.045335233
0000e0 54 7c 24 bd 6f 82 98 bd 9a 1a df bd 99 2c b5 bd
       -0.04015763 -0.07446753 -0.10893746 -0.08846397
0000f0 99 d3 c4 bd a1 cf 37 3d 35 67 ca bd 93 c7 53 bd
       -0.096106716 0.044875745 -0.098829664 -0.051704
000100 83 18 ce bd d9 9f 8f bd 43 7e a1 bd 85 32 7d bd
       -0.10063269 -0.070129104 -0.07885411 -0.061815757
000110 c4 4b 2c bd 25 c4 8a bd c5 58 aa bd 30 bd f5 bd
       -0.042064443 -0.06775693 -0.08317713 -0.11998975
000120 6b b1 0e be 44 e3 bb bd 33 cd bf bd 6d 77 cd be
       -0.13934867 -0.09174207 -0.093653105 -0.40130177
000130 9d 8e 2d 3f 8d a8 cc bd bb b5 0d 3f 55 5f d5 bd
       0.67795736 -0.09993086 0.55355424 -0.10418574
000140 4b 5f 04 bf aa a1 cb bd ed b3 7f bd db 34 7e bd
       -0.51707906 -0.09942944 -0.06242745 -0.062062126
000150 0b a6 06 be bc a8 66 bd 70 94 9e bd 9c 0c c1 bd
       -0.13149278 -0.05631326 -0.07743156 -0.09426233
000160 c8 f9 96 bd d5 44 e7 3d 07 13 2c be 15 19 e0 bd
       -0.07371861 0.112924255 -0.16804133 -0.10942284
000170 3e 3e cc bd 09 71 05 be 6b d4 3b bd 10 d4 8f bd
       -0.09972809 -0.130314 -0.045856874 -0.070228696
000180 13 5c ad bd 21 43 1d bd 83 d5 a9 3e 81 c6 4e 3f
       -0.084648274 -0.038394097 0.3317071 0.8077164
000190 17 ff 11 be 3f e7 1e bd 9c 6b c9 bd ff 6c 5b bf
       -0.14257465 -0.038794752 -0.09834978 -0.8571319
0001a0 a0 52 e1 bd 9f 2a 0e 40 55 4a e7 bd ac a9 5d bd
       -0.110020876 2.2213514 -0.112934746 -0.05411689
0001b0 6f 25 d3 bd 43 1b f3 3e c1 c4 06 be 33 84 fc be
       -0.10309874 0.47481737 -0.13160993 -0.4931961
0001c0 59 3a 4c bd 6a 80 1d bd 15 75 7f 3c a9 07 38 bd
       -0.049860332 -0.038452543 0.015591879 -0.04492918
0001d0 2a c2 32 bd 33 05 df bd 9c 42 9f bd a5 e9 77 3f
       -0.0436422 -0.108896635 -0.077763766 0.9684089
0001e0 c1 9d 8e bd b6 87 47 bd b6 2f ec 3e 19 d8 ef bd
       -0.06963683 -0.04871341 0.4613015 -0.11711139
0001f0 16 4c a0 3e ce f1 ce bd b4 d9 d8 bd 08 e8 77 bf
       0.3130805 -0.10104714 -0.105883986 -0.96838427
000200 85 f0 ad bd 7a a1 09 3f 30 26 b2 bd 98 bc d3 bd
       -0.08493141 0.5376202 -0.0869869 -0.10338706
000210 29 4c e7 bd 16 a8 4e 3e fa 2d 94 bd 89 78 df bd
       -0.11293823 0.20181307 -0.07235332 -0.10911662
000220 e0 d1 a9 3e 31 13 2a 40 de a9 46 bd ff 19 47 bd
       0.33167934 2.6574214 -0.04850184 -0.048608776
000230 66 e5 df bd bf 62 c4 bd 7c 25 01 be 4d 6e dc 3e
       -0.10932426 -0.09589147 -0.12611955 0.43052903
000240 14 d8 54 bd 20 ab d8 bd 10 3d 22 3f 05 fc 5f 3f
       -0.05196388 -0.105795145 0.63374424 0.87493926
000250 fc b7 45 be 5b bd bc bd ab 43 98 bd db 58 80 bd
       -0.19308466 -0.09215804 -0.07434782 -0.06266948
000260 c7 27 96 bd 80 10 aa 3f 9e 1a ed bd 6f d7 82 bd
       -0.07331806 1.3286285 -0.115773425 -0.06388747
000270 14 18 bb bd 99 c8 1d bf 98 4a 68 bd 8e 67 b6 bd
       -0.09135452 -0.6163421 -0.056711763 -0.0890647
000280 e6 04 9c bd e7 e2 86 bd b1 b7 de bd 6a a2 70 3f
       -0.07618122 -0.06586247 -0.1087488 0.93997824
000290 79 20 e0 bd 51 30 9a bd 96 22 93 bd 25 42 d8 3e
       -0.10943694 -0.07528747 -0.07184331 0.42237964
0002a0 be e7 15 3f 90 0d 47 3f da 2f af bd 4c 44 33 bd
       0.58556736 0.7775507 -0.08554049 -0.043766305
0002b0 49 4a c9 bd e7 2c 18 3f 3d ad dc bd dd 66 d2 bd
       -0.09828622 0.59443516 -0.1077523 -0.10273526
0002c0 b8 c4 e1 bd 39 f8 e0 bd 4c a0 7e bc 94 30 8b bc
       -0.11023849 -0.10984845 -0.015541147 -0.016990937
0002d0 21 43 90 bd 0e 39 4b 3f 35 6c b2 bd c6 a2 07 be
       -0.07044054 0.79383934 -0.08712045 -0.13245687
0002e0 ee 63 9a 3c ad 9f 22 bd 3a 2d a9 bd ee d2 13 be
       0.018846478 -0.03970306 -0.082605794 -0.14435932
0002f0 0e 6b 88 bd ce 37 df 3e ca c3 98 bd d7 92 f9 bd
       -0.06661044 0.43597263 -0.07459219 -0.121862106
000300 6e 09 f6 bd 09 29 06 40 94 2a 0d be e2 8b b1 3e
       -0.12013517 2.0962546 -0.13785774 0.34677035
000310 4c 75 ef bd 20 05 81 bd a0 eb 99 bd 72 3f 11 be
       -0.116922945 -0.06299806 -0.07515645 -0.14184359
000320 d0 38 97 bd 1f 6b e3 bd 5c 78 a7 bd ef 48 d3 bd
       -0.07383883 -0.11104416 -0.081772536 -0.10316645
000330 a6 74 70 bd 5b 84 34 bd f2 6c 17 bf 0c 65 bb bd
       -0.058704995 -0.044071537 -0.5915061 -0.091501325
000340 4c e6 d1 bd 3e 5b b3 3c 0d 73 2d bf db 9b 74 bd
       -0.10249004 0.021894094 -0.6775368 -0.059718948
000350 53 fb b0 be 14 60 88 3e b8 47 97 bd 64 f6 d1 bd
       -0.34566745 0.26635802 -0.07386726 -0.102520734
000360 e9 e1 b6 bd ac 2c a9 bd 79 ba 43 bd 7f 30 76 bf
       -0.08929808 -0.082604736 -0.047785256 -0.9616775
000370 1c 72 1f 3e 90 03 f4 bd 42 68 e0 3e 7f e8 27 3f
       0.15570873 -0.11914742 0.43829542 0.65589136
000380 be a9 b3 bd 35 2a a6 3f c4 53 50 bf 1d 97 59 bf
       -0.0877261 1.298163 -0.81377816 -0.84996206
000390 5a 30 f8 be da 47 a9 bc 4d 42 7c bd ad 7b a6 bd
       -0.4847439 -0.020664144 -0.061586667 -0.08129058
0003a0 aa 54 0e be 83 bb 97 bd 1a ad b2 bf ca a2 bc bd
       -0.13899484 -0.07408812 -1.3959076 -0.09210737
0003b0 40 dc 22 bf 89 84 8e bd 67 1d 5b bd 3e 85 66 bf
       -0.63617325 -0.06958873 -0.053494837 -0.9004706
0003c0 32 e3 31 bd e7 ce 9b bd 97 8f b9 bd 58 6d de bb
       -0.04342956 -0.07607823 -0.09060591 -0.006787937
0003d0 df bf c9 bd 4f 33 8d bd af 3a cd bd d6 c2 78 3f
       -0.0985105 -0.06894552 -0.10020959 0.97172296
0003e0 2f 12 9a bd 96 e6 d9 bd 80 3e d3 bd d6 6c bd bd
       -0.075229995 -0.10639684 -0.10314655 -0.092492744
0003f0 dc 05 6a 3f 14 73 66 bd bb dd b6 bd e3 39 9c bd
       0.9141519 -0.05626209 -0.089290105 -0.076282285

fc3.weight f4 [1, 300]
000000 36 a8 ba 3b da a9 b9 bc 81 a3 a0 bc e4 37 cd 3b
       0.005696322 -0.022664 -0.019609215 0.006262766
000010 8d 74 4b bc 8b e2 08 3c 18 d0 49 3b 92 9a f6 3c
       -0.012417925 0.008354793 0.00307942 0.030103002
000020 36 bb 25 ba 40 e7 ba bd 42 b2 f0 bc 58 8a 72 ba
       -0.0006322147 -0.09126139 -0.029381875 -0.0009252182
000030 07 52 a7 3c 6b 6e ac bc e0 22 82 bc 57 ff b0 bc
       0.020424856 -0.021048745 -0.01588577 -0.02160613
000040 24 5f 24 3c 24 21 67 bc 02 ad 09 3d f4 d9 89 3c
       0.010032449 -0.014107022 0.03361226 0.016827561
000050 06 45 34 bb 1e ff 03 3d 7a 24 df bc a7 00 c0 3d
       -0.0027506961 0.03222572 -0.027239073 0.093751244
000060 44 e0 50 3d 43 23 88 3d d1 94 bb bc 46 63 12 bc
       0.050995126 0.06647351 -0.02289811 -0.008934801
000070 76 74 22 bc e8 13 0a be 82 fb 67 3c 71 77 2b 3d
       -0.009915462 -0.13484156 0.014159085 0.041861955
000080 f8 a7 c0 bb dd 60 76 bb 0a ff ff bc e8 00 28 3d
       -0.0058793984 -0.0037594356 -0.031249542 0.04101649
000090 02 09 7c bc 86 70 3d 3c 8e 68 d4 3c 5f 33 8f bb
       -0.015383007 0.011562472 0.025928762 -0.0043701376
0000a0 b9 4a 17 3c 9d 90 85 bc 1a d7 7b bc 75 fa 23 3d
       0.009234124 -0.016304309 -0.015371108 0.040033776
0000b0 b8 92 1a 3c c0 43 9e 3c a5 51 2e ba fe 1b 8d bc
       0.009434395 0.019319415 -0.0006649739 -0.017225262
0000c0 30 db 98 3c 13 35 25 3d 10 eb 32 3c ab 56 37 3d
       0.018659204 0.04033382 0.010920301 0.044760387
0000d0 34 81 89 3c b2 3e a7 bb 44 94 f8 bb 0c de 19 3b
       0.016785242 -0.0051039094 -0.007586034 0.0023478298
0000e0 b0 da 29 3b 53 36 63 3c 69 b3 33 ba e9 87 f4 bc
       0.0025917701 0.013867932 -0.00068550423 -0.029849963
0000f0 6d f3 da 3b 39 3b 49 bd ac 4a 34 bc 3f a2 2e bc
       0.0066818506 -0.049128745 -0.011004131 -0.0106588
000100 a0 a8 8b 3b 4f 4a 0b bd 1f 0a 6d bc 4e 3b 06 bc
       0.004262045 -0.034006413 -0.014467745 -0.00819285
000110 ed 88 d2 3b bd 7a e6 bc b3 e4 84 bc 2a 86 55 3c
       0.006425014 -0.028134698 -0.016222334 0.0130324755
000120 62 eb 0d 3c 43 99 aa 3c f8 d2 1a bc 80 a8 02 bd
       0.008662077 0.020825034 -0.009449713 -0.031898975
000130 7a 98 26 3d e8 46 ca bc 9e ab 67 3d 07 c1 68 bc
       0.040672757 -0.024692014 0.05656015 -0.014206178
000140 82 bb 5d 3b f4 6b 28 3b 64 7d 0c 3c 9b fc 96 3b
       0.0033833687 0.002569911 0.008574817 0.0046077496
000150 ca fb f0 3b 29 9f 9a 3c fb e8 39 bc 49 7b 6e bb
       0.0073542343 0.018874722 -0.011347051 -0.0036389402
000160 ff 03 e5 bb ae 5e 08 3d db 1c 3b 3b 1f ec 8e bc
       -0.0069890018 0.03329342 0.0028551135 -0.017446576
000170 4e 66 83 bc 81 56 21 bc 93 ed a9 3c 7c b5 e0 bc
       -0.016039994 -0.009847284 0.020743167 -0.027430288
000180 a0 b1 72 3c e2 f6 9d bc ce 5f 1f 3d 54 7c 2e 3d
       0.014812857 -0.019282762 0.038909726 0.042599037
000190 88 3e 44 3c 72 cf 95 3c 15 1d b9 bc 85 d2 81 bc
       0.011977799 0.018287394 -0.022596875 -0.015847454
0001a0 08 13 d1 3c a1 af 8b 3d b7 e0 ba 3c 58 3e b6 bb
       0.02552177 0.06820608 0.02281223 -0.005561631
0001b0 96 76 02 bc f7 c6 32 3d 63 e7 89 bc d3 71 5a bd
       -0.007962843 0.04364678 -0.016833967 -0.053331207
0001c0 57 41 97 bc a5 af d2 3c cc 96 20 bd 27 2b 45 3c
       -0.018463774 0.02571852 -0.03920631 0.012034214
0001d0 a9 d6 da 3c 0f 94 d3 3b 5f 7a f8 3a bf 6f 3b 3d
       0.026713686 0.006456859 0.0018957368 0.045760866
0001e0 4e da 1c 3b 1b 03 b7 3c e0 31 30 3d 85 58 e1 3b
       0.002393383 0.022340348 0.043016315 0.0068770074
0001f0 bf 6e aa 3c d2 73 16 3d 1b 0c 29 bc e9 e8 c0 bd
       0.020804761 0.03673155 -0.010317828 -0.09419424
000200 eb 06 80 bc b8 72 24 3d 33 17 e1 3a 05 b0 da bb
       -0.015628299 0.040148467 0.0017173052 -0.006673815
000210 7d 58 e2 bd 7f b8 ff bc 46 05 07 bc 41 0c c9 bb
       -0.11052034 -0.031215904 -0.008241003 -0.006135494
000220 ae c4 6e 3d d9 f8 21 3e cb 5d 80 3b cb 36 16 3a
       0.058293037 0.15817584 0.003917431 0.00057302107
000230 59 39 f4 bc 63 62 36 bc 22 83 f8 3c 25 1d 41 3d
       -0.029812502 -0.011131856 0.030335966 0.047146935
000240 98 2d c4 bc 8e 8e 9c 3c b2 89 02 3d 0f d7 36 3d
       -0.023947522 0.019110944 0.031869598 0.04463869
000250 96 8d f2 3c e1 ba 1c b9 7c 4f f3 bb fa 62 e3 3a
       0.029608529 -0.00014946937 -0.0074252468 0.0017348223
000260 01 5e 21 bb 18 c6 03 3d 17 58 d6 3c f8 14 17 bc
       -0.002462268 0.03217134 0.026165051 -0.009221308
000270 d1 9c 9b 3c e1 6f 93 bd e8 39 c0 3c 88 e9 84 3c
       0.018995674 -0.071990736 0.023465112 0.016224638
000280 35 69 f0 3b 5a 21 e3 bb f4 fa 8f bc e0 5a d9 3c
       0.0073367604 -0.006931466 -0.017575718 0.02653259
000290 77 35 9d bc bc cd a1 bb 50 bf 48 3b 00 dc 56 3d
       -0.019190533 -0.0049378555 0.003063161 0.052455902
0002a0 0f 30 36 3d 00 1e 40 3d e0 bc 48 3c f1 fc 67 3c
       0.044479426 0.04690361 0.012252063 0.014159427
0002b0 b1 e6 18 bb 42 06 23 3d 7c 13 61 3c aa 10 82 3c
       -0.0023330862 0.03980089 0.013737556 0.015877087
0002c0 3b fd 3c 3c c0 b4 a5 bc 0c 2b 56 bc e4 3f 74 3c
       0.011534984 -0.02022779 -0.013071787 0.014907811
0002d0 2c 15 0b bb 1e 20 da 3c 13 c6 80 bc 75 68 82 3b
       -0.0021222336 0.026626643 -0.01571945 0.0039797374
0002e0 da b0 4d 3c 68 8b 93 bc 9b 9f 05 bc 15 02 ba 3b
       0.012554372 -0.01801081 -0.008155729 0.0056765177
0002f0 2c 69 13 bc 84 f3 44 3d b0 c3 f2 bb f3 f9 63 bc
       -0.008997243 0.048083797 -0.0074085817 -0.013914573
000300 21 72 b0 bb f1 21 88 3d 68 f3 6d bc bd 2f 31 3d
       -0.005384699 0.06647099 -0.014523365 0.043258417
000310 e2 7a 9c bb ad db 0b bd 12 ff 3b 3b 53 3c aa bc
       -0.004775391 -0.034145046 0.002868597 -0.020780718
000320 d1 ca 33 3c 59 e2 73 3c b2 1e d6 ba 65 45 04 3d
       0.010973648 0.014885508 -0.0016336052 0.032292742
000330 6d 63 8f 3c 08 b2 95 3c e7 4e 39 bd af 12 cc ba
       0.017503465 0.018273368 -0.045241263 -0.0015569533
000340 bf a7 e1 bb 1b c5 80 3a c1 e9 e5 3c ed a2 1e bd
       -0.006886452 0.0009824367 0.028065564 -0.038729597
000350 09 c7 9c bd 27 e2 19 3d b5 6a e7 bb 93 1c 7b 3c
       -0.076551504 0.03756919 -0.007062281 0.015326637
000360 21 70 a1 bc d4 f2 9a bb 52 cb f7 bc bf e2 a3 bc
       -0.019706788 -0.0047286544 -0.030248318 -0.020005582
000370 5e e9 9a 3d 7f a4 13 3d db a9 01 3d 42 d0 16 3d
       0.075640425 0.036045548 0.031656127 0.036819704
000380 79 ff 3a bc 2d 1d 28 3d fe d4 a0 bc 84 4f a1 3d
       -0.0114134485 0.04104345 -0.019632813 0.078764945
000390 e5 c8 75 bd fe 32 c8 3b 93 ed 53 bc e6 06 6a 3b
       -0.06000604 0.0061095944 -0.01293506 0.0035709678
0003a0 11 fe 35 bc 53 7f f2 3b 6b 15 22 bd 93 a4 2d 3b
       -0.011107937 0.007400432 -0.039571207 0.00264958
0003b0 31 77 06 bd 1a 89 5a 3b 83 9b 0a bc 5b ac ed bc
       -0.032828514 0.003334588 -0.008459928 -0.02901285
0003c0 a1 ef 36 3c 8b c3 bc bc 72 17 90 bb 51 7f d1 3c
       0.01116553 -0.02304246 -0.004397326 0.025573405
0003d0 19 17 7c bc d9 60 b2 bc 89 7c cd bc 87 28 37 3d
       -0.015386366 -0.021774696 -0.025083797 0.044716384
0003e0 7c e8 c8 bc 01 a5 73 3b b5 99 e7 3b d4 63 91 3d
       -0.02452492 0.0037177207 0.007067884 0.07099119
0003f0 3c b1 e6 3c e6 da 9a 3c 33 ac a2 3b c3 44 0a 3b
       0.028160684 0.018903207 0.0049643754 0.0021098114

bn1.weight f4 [400]
000000 b9 ac c8 3e ba fc 0b 3f 51 ae 8f 3e 42 04 6f 3e
       0.39194277 0.54682505 0.2806268 0.23341468
000010 15 a5 0a 3f f5 15 f6 3e f8 db 51 3f 56 02 a6 3e
       0.54158145 0.48063627 0.8197627 0.32423657
000020 30 f9 1a 3f 11 21 2a 3f a7 b4 d4 3e eb df 36 3f
       0.6053648 0.66456705 0.41544077 0.7143542
000030 35 c4 f5 3d c5 cc f7 3e 34 7a e9 3e 1c 99 f9 3e
       0.12000314 0.48398414 0.45601046 0.48749626
000040 68 2a 19 3f 92 a2 ed 3e 9d 1a f0 3e 57 8f 33 3f
       0.5983033 0.46413094 0.46895304 0.70140594
000050 4c 4b 38 3f 4e 36 0e 3f 7d 0d cd 3e 9e c0 04 3f
       0.71989894 0.5555161 0.40049353 0.5185641
000060 5b 76 ec 3e 6e 02 f0 3a db 32 a2 3e d6 90 1b 3f
       0.46184048 0.0018311271 0.31679425 0.6076788
000070 a2 f2 fc 3e 92 69 e7 3e 91 c6 16 3f 61 01 23 3f
       0.49403864 0.4519773 0.5889674 0.6367398
000080 3f ae 1e 3f 29 6e 41 3f 57 b9 2e 3e 51 54 8a 3e
       0.6198463 0.75558716 0.17062889 0.27017453
000090 44 24 d0 3e 45 c9 20 3f 44 05 0b 3f a6 b2 01 3f
       0.40652668 0.6280711 0.5430491 0.5066322
0000a0 e3 4d 89 3e 05 55 d3 3e ef 25 df 3e c2 5a 61 3e
       0.26817235 0.41275802 0.4358363 0.22007278
0000b0 13 1b 9f 3e e2 c2 c2 3e ec f3 3c 3f a8 02 c3 3e
       0.31075343 0.3803931 0.73809695 0.38087964
0000c0 96 92 16 3f 49 c8 b8 3e cd ee 3d 3f 96 f6 1b 3f
       0.5881742 0.36090305 0.74192506 0.60923135
0000d0 9a 54 56 3f 55 d1 64 3e 1a c5 1e 3f 9e ba 81 3e
       0.8372284 0.22345479 0.62019503 0.2533769
0000e0 c7 dc 11 3f 6f ee c0 3e e1 c6 a2 3e 73 cf 9a 3d
       0.56977504 0.3768191 0.31792358 0.07559099
0000f0 61 b0 fc 3e 41 e9 4e 3f 17 7a af 3e 9e 6b 3a 3f
       0.49353316 0.8082467 0.34272835 0.7282046
000100 20 95 17 b9 ea d8 29 3f b9 76 e6 3e d8 10 9b 3e
       -0.00014456036 0.6634661 0.45012453 0.30286288
000110 d8 f8 f0 3e 35 73 26 3e 56 c1 a9 3e a2 2c 00 3f
       0.47064853 0.16254885 0.33155316 0.50068104
000120 d3 5d 0c 3f f0 1c 86 3e 21 3f 2c 3f af 0d f4 3e
       0.54830664 0.26193953 0.6728383 0.4766669
000130 9f 91 0b 3f cd f7 73 3e 3a 47 37 3f 10 fb 9c 3e
       0.54519075 0.23824997 0.7159306 0.30660295
000140 17 fb 3c 3e b0 45 36 3c 23 43 63 3e 13 97 17 3f
       0.18455158 0.011125013 0.2219358 0.59214896
000150 d2 d3 17 3f 83 12 10 3f f3 d4 e5 bb 9f 32 20 3f
       0.5930759 0.56278247 -0.007013911 0.6257724
000160 7d d9 38 3f db cf f3 3e 6c ae a5 3e 89 cb af 3e
       0.7220686 0.4761952 0.32359636 0.34334973
000170 1a 13 2b 3f 20 db 2c 3b 67 ac fd 3e 2d 29 ea 3e
       0.6682602 0.0026375726 0.49545595 0.4573454
000180 39 e3 9f 3d c3 5b 1a 3f 90 6d 29 3e 9f d5 01 3f
       0.07807011 0.6029627 0.16545701 0.50716585
000190 17 59 fa 3e d8 e2 f9 3e 4f 1b 12 3f ba ab 51 3f
       0.48896095 0.4880588 0.5707292 0.8190266
0001a0 74 ac 32 3f c4 d0 1f 3f 2a 84 04 3f b4 bd 16 3f
       0.6979439 0.62427926 0.51764166 0.58883214
0001b0 c1 06 0e 3f e0 1d 11 3f c2 7b 27 3f 23 29 9d 3e
       0.55479056 0.5668621 0.65423214 0.30695447
0001c0 a8 a0 cd 3e dc 76 25 3f bb 4e ea 3e 5d 49 ee 3e
       0.40161633 0.6463449 0.45763192 0.46540347
0001d0 1e dd 08 3f e8 b8 99 3e 3c d3 39 3f 40 eb d0 3e
       0.534624 0.30023885 0.72587943 0.40804482
0001e0 67 16 08 3f d9 7f 05 3f 54 b9 04 3f 08 ec a0 3e
       0.53159183 0.52148205 0.5184529 0.31430078
0001f0 1a a0 e3 3d 4b 2f c4 3e 7d 38 cd 3e a7 24 08 3f
       0.11114521 0.38317332 0.4008216 0.5318093
000200 d4 1e 0b 3f 1a 39 ad 3e 55 df 05 3f 4b 5b cf 3e
       0.54343915 0.33832628 0.522939 0.40499339
000210 56 a5 ed 3e 57 66 5d 3e c4 49 5a 3e 40 7f 5f 3a
       0.46415204 0.21621071 0.21317202 0.00085257366
000220 a2 bf fe 3e 3b 13 20 3f 10 0e 5c 3c 54 d9 74 3e
       0.4975558 0.62529343 0.013431087 0.23911029
000230 de 9d 1b 3f 51 38 ee 3e 93 d4 b8 3e f1 d8 f1 3e
       0.6078776 0.4652734 0.3609968 0.47235826
000240 8d a7 fe 3e 26 2a 02 3f c1 75 1c 3f 4c 00 23 3f
       0.49737206 0.50845563 0.6111718 0.6367233
000250 20 88 db 3e 74 2b e0 3e f5 82 80 3e 09 8d e9 3e
       0.42877293 0.43783152 0.25099912 0.45615414
000260 36 6d 06 3f 40 84 a8 be 29 3e 00 3f 1c 7c fa 3e
       0.5251039 -0.329134 0.5009485 0.48922813
000270 17 34 01 3f 7f 5e d6 3e 7b 71 20 3e 0e 87 26 3f
       0.5047011 0.4186897 0.1566829 0.6504983
000280 da 2a df 3e 24 47 14 3f 6c e4 cb 3e f1 c5 04 3f
       0.4358738 0.5792105 0.3982271 0.51864535
000290 c0 17 18 3f 84 e8 01 3f 9e fe 1a 3f ec c9 8b 3e
       0.5941124 0.50745416 0.60544765 0.27302492
0002a0 6a 56 23 3f 8b ab ca 3e db 0a 3f 3f 9f 40 08 3f
       0.6380373 0.39584002 0.7462594 0.53223604
0002b0 b6 5b 07 3f cf 39 16 3f 6e 43 c9 3e 19 64 01 3f
       0.52874315 0.5868196 0.39309257 0.5054336
0002c0 8b f7 8a 3e 95 ae bb 3e 3f 7d fe 3e 95 66 b8 3e
       0.27141985 0.36656633 0.4970493 0.36015764
0002d0 76 07 7f 3e c3 e3 e9 3e 43 f9 0e 3f 30 25 e4 3e
       0.2490519 0.4568158 0.55849093 0.44559622
0002e0 9e 65 45 3f e2 b8 01 3f dc 1b a8 3e 1c 51 1c 3f
       0.7710818 0.50672734 0.32833755 0.61061263
0002f0 8e 1c 8c 3e 4e 33 d7 3e 54 1e 03 3f 86 c7 10 3f
       0.27365535 0.4203133 0.5121815 0.5655445
000300 fc b1 29 3f 47 bc 21 3f 1f db 1b 3f 63 d2 5e 3e
       0.6628721 0.63177913 0.6088123 0.21759944
000310 40 2d ba 3e 02 43 19 3f 0b fb 30 3f 64 06 27 3f
       0.36362648 0.5986787 0.6913306 0.65244126
000320 81 4e 37 3f d4 3e fa 3e 4e c8 58 bc 02 5f e7 3e
       0.7160416 0.4887606 -0.01323135 0.45189673
000330 9a 56 96 b9 f7 57 27 3f 90 c3 b2 3e 2c e5 60 3e
       -0.00028674753 0.653686 0.34914827 0.21962422
000340 d9 4f 49 3b 61 de 4f 3e e8 b0 cb 3e 0c 91 f0 b9
       0.003071776 0.20299675 0.39783406 -0.00045884436
000350 a4 c7 da 3e ad a6 33 3f 32 f6 67 3e 9d 80 3b 3f
       0.4273044 0.701762 0.2265251 0.73243123
000360 16 29 5c 3e 03 b6 9a 3e 61 d7 e3 3e b0 3e bb 3e
       0.21500048 0.3021699 0.4450026 0.36571264
000370 64 be 33 3f e6 67 19 3f f1 f4 2f 39 dd 0d 1a 3f
       0.7021239 0.5992416 0.00016780548 0.60177404
000380 0e f3 b5 3e ac 52 8a 3e de a2 dd 3e 25 7e c7 3e
       0.35537 0.270162 0.4328832 0.38963428
000390 36 ea 90 3e 28 a4 e3 3e c4 75 09 3f b5 29 e0 3e
       0.2830369 0.4446118 0.5369532 0.4378182
0003a0 28 98 8b 3e 4a 41 c9 3b 72 20 a0 3e 5c b3 ca 3e
       0.27264524 0.0061418163 0.31274754 0.39589965
0003b0 29 2c 10 3f d7 ce 1f 3f 62 7a 99 3e 3e 44 48 3f
       0.56317383 0.6242499 0.29976183 0.7822913
0003c0 5d d6 2d 3f 22 d5 23 3f f6 5e b6 3e ec 17 ad 3e
       0.6790522 0.6399709 0.35619324 0.33807313
0003d0 1b 98 1b 3e 74 4f 24 3f d2 3c ea 3e 73 c7 d5 3e
       0.15194742 0.64183736 0.45749527 0.4175373
0003e0 12 72 1d 3c 84 fc 08 3f 78 07 93 3e b8 4a 12 3e
       0.009609716 0.5351031 0.28716636 0.14286315
0003f0 48 46 a6 3e 50 bc 26 3f c4 57 d1 3e 11 7f 0e 3f
       0.32475495 0.6513109 0.40887272 0.5566264

bn1.bias f4 [400]
000000 8c bc 69 be c2 1e 33 bf ed b5 d2 bd c7 f8 8e bf
       -0.22825831 -0.6996881 -0.10288606 -1.1169671
000010 e0 07 52 bf f1 2b 14 bf 43 72 92 bf 87 f5 b6 bc
       -0.82043266 -0.5787955 -1.144112 -0.022333873
000020 4b 7b 21 bf 12 ba 7b bf cd 8d 0d bf 53 b8 80 bf
       -0.63078755 -0.98330796 -0.55294496 -1.0056251
000030 7a 89 6c 3d 18 d0 ce be 40 fd 08 bf 55 ca b0 be
       0.057748295 -0.40393138 -0.5351143 -0.34529367
000040 9f 2b 9b be c2 77 c3 bf a1 ac 77 be 21 34 8b bf
       -0.30306718 -1.5270922 -0.24186946 -1.0875283
000050 8b 1e a9 bf 99 91 54 bf 54 c3 88 bf 1c c0 8f be
       -1.3212446 -0.83034664 -1.068461 -0.28076255
000060 ad 96 de be 65 45 12 bd 57 0e ae bf 47 aa a3 bf
       -0.43474331 -0.03571071 -1.3598126 -1.278634
000070 c7 2c 4d bf 9f c2 fb be 34 30 93 bf 54 38 38 bf
       -0.8014645 -0.49171922 -1.1499085 -0.7196095
000080 cf b9 01 be 7c e0 96 bf f5 cb 88 bf 60 f0 95 3d
       -0.12668537 -1.1787257 -1.0687243 0.073212385
000090 02 0d ed be 21 4e 53 bf 5a 34 25 bf a2 9a 2a bf
       -0.46298987 -0.8254109 -0.6453301 -0.666422
0000a0 93 5b b8 bf df 29 13 bf 71 0a a5 bf f1 8f 93 bf
       -1.4402946 -0.57485765 -1.2893811 -1.1528302
0000b0 5a 6f 24 bf ba 8b 72 be 20 35 82 bf 82 40 a9 be
       -0.6423241 -0.23686114 -1.0172462 -0.33057028
0000c0 4d 98 65 bf b7 ea 66 bf ad 61 64 bf 90 6a 60 bf
       -0.8968552 -0.90201896 -0.8921154 -0.876626
0000d0 bc dc a4 bf 1e 31 ae bf 56 e8 74 bf 3a 77 a1 bf
       -1.2879863 -1.3608739 -0.95667017 -1.261451
0000e0 ad ae 1e bf ad 53 af bf 51 d2 70 bf 03 19 33 3f
       -0.61985284 -1.3697411 -0.9407092 0.6996004
0000f0 c1 b2 e0 be f1 09 a8 bf c7 66 98 be e5 43 87 bf
       -0.43886378 -1.3128034 -0.29765913 -1.0567595
000100 36 de c7 bb f9 80 65 bf 56 d6 a3 bf 6e e8 af bf
       -0.0060994877 -0.8964992 -1.2799785 -1.3742807
000110 5c 3f 26 bf e3 c3 4f bf 1c 18 9f be b0 5f 7d bf
       -0.6494043 -0.81158274 -0.31073081 -0.9897413
000120 6d 82 a6 bf 7c bf 87 3e 73 97 87 bf b7 f3 3c bf
       -1.3008553 0.26513278 -1.0593094 -0.7380938
000130 13 23 5e bf 07 2b 6c bf 7f 34 44 bf b0 2e f3 3c
       -0.8677227 -0.92253155 -0.766426 0.029685348
000140 52 e5 ec 3c d3 c8 c0 bd 53 58 98 bf 32 a0 59 bf
       0.028917942 -0.09413304 -1.1901954 -0.85010064
000150 d4 56 3f bf aa 24 01 bf 40 bf b4 bd 1a b4 37 bf
       -0.74741864 -0.5044657 -0.088255405 -0.7175919
000160 f4 ac 5e bf c8 11 3b bf b7 44 a0 be 75 e6 6d be
       -0.86982656 -0.7307401 -0.31302425 -0.23232444
000170 8a 8f 82 bf 66 97 23 bd 69 a4 15 bf a3 52 a1 be
       -1.0200055 -0.039939307 -0.58453995 -0.3150836
000180 97 84 63 3f 98 51 6f bf 28 0a 82 bc 46 8e 8b bf
       0.8887419 -0.9348388 -0.015873984 -1.0902793
000190 47 a2 96 bf 54 c0 57 bf ed 87 56 bf 4c 00 87 bf
       -1.1768273 -0.84277844 -0.83801156 -1.0546966
0001a0 25 c1 8d bf df 34 50 bf 7c b4 f4 be cf 44 8b bf
       -1.1074568 -0.81330675 -0.4779395 -1.0880374
0001b0 e9 c4 82 bf 29 b0 10 bf 78 96 9d bf 0e ff 89 be
       -1.0216342 -0.565188 -1.2311544 -0.26952404
0001c0 ca 99 b2 bf f3 8e 7b bf 33 b9 28 bf 52 1f ee be
       -1.3953183 -0.98265 -0.6590759 -0.4650827
0001d0 8f 41 1e bf 1e 25 b5 bf bd 38 75 bf 95 39 45 bf
       -0.61818784 -1.4151952 -0.957897 -0.7704099
0001e0 33 04 c6 be 53 57 35 bf f7 46 2f bf 69 53 c6 be
       -0.3867508 -0.7083637 -0.6846766 -0.38735512
0001f0 1f 52 63 bf 53 d8 83 be 89 c2 e2 be 2a f3 51 bf
       -0.8879718 -0.2575098 -0.44289044 -0.82011664
000200 07 1f dd be bf a7 a1 bf 9e ce 64 bf fc 15 be be
       -0.43187734 -1.2629317 -0.8937777 -0.37126148
000210 0b ef 55 bf 48 99 92 bf 42 0e 86 be c0 51 4b bc
       -0.83567876 -1.1453028 -0.26182753 -0.012409627
000220 0b 28 12 bf 33 6c cb be cf 90 06 be c5 c7 57 be
       -0.5709235 -0.39730987 -0.13141178 -0.210723
000230 da 96 2c bf e4 69 b0 be 9f de ee be e5 ea 00 bf
       -0.6741768 -0.34455788 -0.4665422 -0.5035842
000240 94 1d 02 bf 9e 81 77 bf 47 b3 71 bf 25 87 98 bf
       -0.5082638 -0.96682155 -0.9441418 -1.1916243
000250 8d 36 0a bf e6 92 df be 28 f3 90 bd cf 70 97 be
       -0.5398949 -0.43666762 -0.070776284 -0.29578254
000260 a0 6b 51 be f6 4d 23 3d fe b8 0c bf 28 be 95 bf
       -0.20451212 0.03986927 -0.54969776 -1.1698656
000270 12 44 33 bf de b9 86 bf f2 76 58 bf 82 bd 8d bf
       -0.7002574 -1.0525472 -0.84556496 -1.1073458
000280 7e 26 c1 be 0c a9 39 bf d0 3e 39 bf 43 c5 98 bf
       -0.3772468 -0.7252357 -0.7236147 -1.19352
000290 aa a8 46 bf 8f 12 95 be eb d6 21 bf ff 35 97 bb
       -0.7760111 -0.29115722 -0.63218564 -0.004614591
0002a0 9d ef 69 bf ed 19 10 bf c7 51 38 bf 56 38 08 bf
       -0.91381246 -0.5628956 -0.7199978 -0.5321096
0002b0 e1 25 a1 bf ae 63 60 bf 93 02 b5 bf cd 19 18 bf
       -1.2589685 -0.876521 -1.414141 -0.5941437
0002c0 f9 7b b5 bf 91 0e 9f bf 77 b6 0f bf 1f 99 81 be
       -1.4178458 -1.242632 -0.56137794 -0.25312135
0002d0 82 f4 7a bf 28 6c 06 bf dd 87 4d bf fb 99 39 bf
       -0.9802934 -0.52508783 -0.80285436 -0.7250058
0002e0 64 a6 88 bf e6 37 80 bf 49 da 93 be 0c 1f 8a be
       -1.0675778 -1.0017059 -0.28877476 -0.26976812
0002f0 2d 2b 66 bd 97 77 4c be ad 90 fd be 0c 14 6a bf
       -0.05619352 -0.19967495 -0.4952444 -0.9143684
000300 b4 56 8c bf 5c 1c 85 bf cc c7 11 bf 02 cd 86 bf
       -1.096396 -1.039928 -0.5694549 -1.0531313
000310 ef 3e dd 3d da ff 3c bf bf 47 d7 be f7 53 6e bf
       0.10803019 -0.738279 -0.42046925 -0.9309687
000320 46 dd 47 bf ea 68 da be f7 9c 94 bd 1a 99 e6 be
       -0.7807201 -0.42658168 -0.07256501 -0.45038682
000330 31 dc 5e bd 7c f5 78 bf 22 75 b5 be 2a 09 56 bd
       -0.05440921 -0.9724958 -0.35440928 -0.052254833
000340 52 ee 17 bd da 8f 1f bd 1e 10 83 be 29 5d a5 bd
       -0.037092514 -0.038955547 -0.25598234 -0.080744095
000350 ce 80 9a be 78 cf 9d bf 06 65 8f bf b1 d6 21 bf
       -0.30176395 -1.232894 -1.1202705 -0.6321822
000360 77 3b 9a bf 34 76 a7 bf 36 95 67 be f2 df ee be
       -1.2049397 -1.3082948 -0.22615513 -0.46655232
000370 fe 58 5b bf e0 f5 d9 bf aa c6 85 bd ca 74 87 bf
       -0.85682666 -1.702816 -0.06532033 -1.0582516
000380 df 9f 07 bf 13 44 82 bf 34 28 fd bd e5 f0 c2 be
       -0.5297832 -1.0177025 -0.12361184 -0.38074413
000390 3d 70 8d bf f0 44 97 bf cf c8 38 bf 0a 99 d6 be
       -1.1049877 -1.1817913 -0.7218141 -0.41913635
0003a0 21 18 a3 bf 39 cc 7b bd 64 bd 8b bf c5 c1 9c be
       -1.2741739 -0.06147406 -1.0917172 -0.30616584
0003b0 41 29 14 bf 1c 46 9a bf d7 10 bf 3d e6 1a 12 bf
       -0.5787545 -1.2052646 0.09329384 -0.57072294
0003c0 99 e4 8b bf e4 d5 94 bf 61 f1 8e be aa ae 40 be
       -1.0929137 -1.1627774 -0.27918532 -0.18816629
0003d0 5f 17 86 bf 69 0a 66 bf 90 7a 19 bf 33 a6 3e bf
       -1.0475882 -0.89859635 -0.5995264 -0.7447235
0003e0 7b 72 ab bd fe 1a a0 bf 8f 13 3b bd a0 2a 34 bf
       -0.08371445 -1.2508237 -0.04567295 -0.7037754
0003f0 e9 fd b3 be 12 1e 99 bf c3 13 0b bf 00 9a a8 bf
       -0.35154656 -1.1962302 -0.5432703 -1.3171997
